weights/multifactor_lstm.pth (torch, 836112 bytes, 9 tensors)

lstm.weight_ih_l0 f4 [512, 19]
0.017626334 0.049650185 -0.02070696 0.06893765 -0.031623162 -0.034881245 -0.07138611 -0.0015424732
0.034247223 -0.08205056 0.06788242 -0.0009038405 0.05657359 -0.023481539 0.023324423 -0.048668217
0.043121032 -0.02861107 -0.09122963 -0.008411758 -0.03443457 -0.010365553 0.04522001 0.13975297
-0.08459414 -0.035106573 -0.03725113 -0.060405917 0.0101842405 -0.07615723 0.08597867 -0.05177167
0.072987184 0.025087649 -0.031331185 0.058068097 0.014915705 0.059359558 -0.1060708 -0.1037199
0.023748502 -0.0771864 -0.016018365 -0.023191731 -0.033636346 -0.1347183 -0.030793825 -0.045837913
-0.013616114 -0.11687104 -0.14489655 -0.10859863 -0.13303581 -0.0017865134 -0.049126986 -0.045571078
-0.06557105 0.13862334 0.022425946 -0.06280112 -0.22544098 -0.29133323 0.028950954 -0.108476005
0.11756266 0.06963205 0.1325469 0.01633736 -0.008208694 0.012309275 0.15630338 0.049137745
0.10247451 -0.0862653 -0.080464035 -0.037575867 0.0014045986 0.0547832 0.03164973 0.14148048
0.022391329 -0.01480305 0.06833707 -0.0048036175 0.05604056 -0.00077366334 0.07177168 -0.049821954
0.0009412762 0.06670511 0.04609368 0.014367457 0.06995776 0.10084324 -0.026631055 -0.08180548
0.08242252 -0.029825103 0.028474739 -0.025714118 -0.069056235 0.020330142 -0.029701874 -0.08030302
0.001823707 -0.049154043 -0.075618304 -0.025803184 -0.08027483 -0.049770944 0.080091365 0.012803575
0.019829746 -0.10311749 -0.09029905 -0.008696802 0.013821386 0.023000583 0.06269117 -0.062739536
0.021933952 -0.03118862 0.008671532 -0.04409657 -0.026077298 -0.03166923 0.023646083 -0.052310225
0.10496391 -0.00817159 0.09384433 0.044089716 -0.07674496 0.014071428 -0.044972856 -0.033881556
-0.04832659 -0.062830284 0.007559403 -0.038707133 0.014717486 -0.105653904 0.04743925 -0.07520864
-0.03556694 0.030721283 0.041596495 0.06439563 0.073055476 -0.08959332 0.016098348 -0.055204436
-0.10427377 -0.14095096 0.08050928 -0.11623879 -0.0041266866 -0.05658726 -0.04202788 -0.15018614
-0.015752701 -0.05165748 -0.050066393 -0.1473205 -0.02149049 -0.09215549 -0.10794292 -0.010642508
-0.056670535 -0.13494562 -0.14908306 -0.10403575 -0.010527298 -0.022586212 -0.09131614 -0.07115215
-0.1770601 -0.046889704 0.0056238226 -0.12705654 -0.043936703 -0.007162062 -0.061062973 -0.096973896
-0.03480398 -0.02258403 -0.04824465 -0.09585482 -0.10694345 -0.053034592 -0.11322384 -0.07407938
0.056498446 0.0052287458 -0.079482384 -0.10049392 -0.048266947 -0.09555044 -0.05518867 -0.037719425
-0.14241658 -0.08007275 0.025451733 -0.02405379 -0.05574788 -0.120090805 -0.10609608 -0.15429822
-0.12287996 -0.0040248893 0.052759495 0.04080867 -0.028370382 -0.0033934854 -0.039964795 0.075992875
-0.011650865 -0.041633826 0.037568096 -0.018268952 -0.06265735 0.083443984 -0.052548297 -0.018186165
-0.10517028 0.043265093 0.04757081 0.008787974 -0.1012015 -0.086385384 -0.071787156 0.14426117
0.120786406 0.052686676 0.046961546 -0.00014560453 -0.019028094 -0.068710044 -0.062021732 -0.08227852
0.06723089 -0.047908396 -0.0092262635 -0.062134612 -0.020230742 -0.070833534 -0.08014902 0.014047909
-0.01538574 0.054565944 0.06407028 0.027587283 -0.022513535 -0.03365373 -0.031740963 -0.087302536
00000000: 1a65 903c fe5d 4b3d a4a1 a9bc 2f2f 8d3d
00000010: 4a87 01bd a3df 0ebd e132 92bd d02c caba
00000020: d146 0c3d 200a a8bd f005 8b3d b6ef 6cba
00000030: b5b9 673d 5b5c c0bc dc12 bf3c 5358 47bd
00000040: ae9f 303d c361 eabc 9ad6 babd 78d1 09bc
00000050: 440b 0dbd 48d4 29bc 9e38 393d 671b 0f3e
00000060: b13f adbd e9cb 0fbd a494 18bd 326c 77bd
00000070: cddb 263c 52f8 9bbd 9615 b03d 880e 54bd
00000080: 4e7a 953d 9d84 cd3c 2155 00bd d0d8 6d3d
00000090: 0061 743c 0223 733d a63b d9bd 196b d4bd
000000a0: 388c c23c e713 9ebd f238 83bc 96fc bdbc
000000b0: 44c6 09bd 98f3 09be 5543 fcbc 89c0 3bbd
000000c0: 1f16 5fbc 155a efbd c35f 14be f568 debd
000000d0: 8a3a 08be 7129 eaba 6139 49bd bda8 3abd
000000e0: 1d4a 86bd 47f3 0d3e 9eb6 b73c e09d 80bd
000000f0: 00da 66be a129 95be 8d2a ed3c ab28 debd
00000100: b1c4 f03d 409b 8e3d 60ba 073e edd5 853c
00000110: c27d 06bc d7ac 493c fe0d 203e a944 493d
00000120: 28de d13d ddab b0bd 54ca a4bd 27e9 19bd
00000130: 821a b83a 5964 603d 26a3 013d 42e0 103e
00000140: 056e b73c 7e88 72bc 4ef4 8b3d aa67 9dbb
00000150: c98a 653d abcf 4aba 08fd 923d 1b12 4cbd
00000160: fabf 763a b09c 883d bacc 3c3d 7b65 6b3c
00000170: 0446 8f3d e786 ce3d 5f29 dabc a289 a7bd
00000180: 23cd a83d c653 f4bc db43 e93c 6aa6 d2bc
00000190: 5b6d 8dbd 668b a63c 5851 f3bc e975 a4bd
000001a0: 7409 ef3a c055 49bd c5dd 9abd 3361 d3bc
000001b0: 2167 a4bd 9edc 4bbd f106 a43d 16c6 513c
000001c0: fe71 a23c 432f d3bd b5ee b8bd 087d 0ebc
000001d0: 1873 623c b86b bc3c 3a64 803d 967d 80bd
000001e0: d5ae b33c 477f ffbc 0b13 0e3c 9b9e 34bd
000001f0: 0fa0 d5bc 98b7 01bd 6eb5 c13c 3f43 56bd
00000200: 52f7 d63d 22e2 05bc 7531 c03d 6b97 343d
00000210: 762c 9dbd d98b 663c 7535 38bd 63c7 0abd
00000220: 1af2 45bd 2aad 80bd deb4 f73b 5f8b 1ebd
00000230: 9c21 713c 1361 d8bd a94f 423d fd06 9abd
00000240: a4ae 11bd 33ab fb3c 1661 2a3d dbe1 833d
00000250: 1c9e 953d b47c b7bd afe0 833c 0c1e 62bd
00000260: 7c8d d5bd 7355 10be 0de2 a43d 9a0e eebd
00000270: 2839 87bb 0bc8 67bd 6d25 2cbd 65ca 19be
00000280: cf0b 81bc cb96 53bd 6b12 4dbd 2fdb 16be
00000290: d30c b0bc 04bc bcbd 2d11 ddbd ea5d 2ebc
000002a0: 5d1f 68bd 2f2f 0abe 3ba9 18be b210 d5bd
000002b0: b07a 2cbc b806 b9bc f503 bbbd 38b8 91bd
000002c0: 3e4f 35be 6b0f 40bd 0b48 b83b 1c1b 02be
000002d0: f9f6 33bd bbaf eabb 2b1d 7abd 409a c6bd
000002e0: 9e8e 0ebd 2502 b9bc 2f9c 45bd 884f c4bd
000002f0: 2b05 dbbd cd3a 59bd e7e1 e7bd eeb6 97bd
00000300: ea6a 673d e655 ab3b a9c7 a2bd c2cf cdbd
00000310: 90b3 45bd f3af c3bd 840d 62bd af7f 1abd
00000320: a7d5 11be 2ffd a3bd 2780 d03c 740c c5bc
00000330: e457 64bd 2bf2 f5bd e748 d9bd 5a00 1ebe
00000340: 7da8 fbbd 38e3 83bb 571a 583d fe26 273d
00000350: 0169 e8bc 3d65 5ebb 20b2 23bd 27a2 9b3d
00000360: 45e3 3ebc 3b88 2abd 01e1 193d c5a8 95bc
00000370: 7f52 80bd aee4 aa3d e23c 57bd 27fb 94bc
00000380: 8463 d7bd bd36 313d 9cd9 423d 6ffb 0f3c
00000390: bb42 cfbd d2ea b0bd 2505 93bd 33b9 133e
000003a0: dd5e f73d fccd 573d c05a 403d 6bad 18b9
000003b0: cee0 9bbc dab7 8cbd 800a 7ebd a481 a8bd
000003c0: 59b0 893d 983b 44bd c129 17bc dd80 7ebd
000003d0: f1ba a5bc 2c11 91bd 2b25 a4bd 3329 663c
000003e0: 7914 7cbc 8a80 5f3d 4737 833d bafe e13c
000003f0: 4e6e b8bc 7ed8 09bd d002 02bd accb b2bd

lstm.weight_hh_l0 f4 [512, 128]
-0.033941224 0.067167096 0.039810546 -0.0645379 -0.06625782 0.0012409016 -0.08525323 -0.06176948
0.03457223 -0.029081695 -0.0031319857 -0.036113907 0.05720774 0.07258087 0.06377948 -0.078601174
-0.026131626 0.042808913 0.052277587 -0.01980988 0.048398502 -0.002613254 0.009817846 0.0595553
0.060465463 -0.062399432 -0.05366162 0.031311728 0.053122707 -0.020580508 0.07838262 -0.010182396
-0.044823173 -0.009022132 -0.075230636 0.02738595 -0.08126198 0.08201634 -0.06706675 0.057536833
-0.066298984 -0.012881584 -0.048950296 0.045165367 0.051264204 -0.08265275 -0.07588095 0.011635847
-0.0019014478 0.00051249564 0.026870787 -0.017468765 0.07458811 0.006287068 -0.040719155 0.030669674
-0.0685776 -0.04227178 0.025770038 -0.03708261 -0.08438367 0.044237755 0.02274897 0.025726005
0.030722432 -0.08721922 -0.038506802 -0.042936172 0.084575735 -0.037238017 -0.058067188 -0.031022187
0.008492768 0.035620145 0.06509218 0.063809596 0.009077385 0.080522306 0.0469955 0.04715932
-0.07579335 0.0072211027 -0.01877267 -0.083999164 -0.04365083 0.06725251 0.0324137 0.081687264
0.060267396 -0.00067616254 0.079439946 0.018643245 -0.012983359 -0.037796997 0.05697065 0.039625548
0.06136965 -0.015354767 -0.08180382 0.016028374 0.009672694 -0.05753328 0.021429189 -0.010697417
0.075409316 0.004159555 -0.043653935 0.07081223 0.0026264265 -0.014844835 0.04221662 0.08526074
0.040302686 0.002492331 0.07239162 -0.038763057 0.07811522 -0.050359942 0.001619555 0.08044294
0.035198435 -0.018523581 0.0544559 0.052136935 -0.0796729 -0.009851292 -0.0695608 -0.019051827
-0.010654531 -0.035359256 -0.032304853 0.04780356 -0.0026249886 -0.08794436 0.015193358 -0.08692453
-0.060636554 0.05402804 0.06756798 -0.0313603 -0.053670935 0.03999839 -0.08443462 0.05453027
0.06088341 0.037297122 0.026976846 0.018277347 -0.067759655 -0.03540526 0.05701407 0.07444472
0.0023608804 0.022708066 -0.08383672 0.062396728 -0.051481973 -0.047380887 0.08721601 -0.025337264
-0.04465489 0.012158215 0.06965614 0.08031357 0.00739903 0.06017404 0.06303597 -0.014772609
-0.06984223 0.0023780018 -0.030025456 0.030974783 -0.06476119 -0.059287466 -0.066565886 -0.06612377
0.06723275 -0.088074215 -0.0032535791 -0.054550674 -0.037176292 -0.025472134 0.04146605 0.059434198
-0.019886956 0.0028822199 -0.00097225606 0.08049191 0.039504223 -0.01835236 0.059852324 -0.07136965
0.035031557 0.06856408 -0.045876414 0.03307361 0.0405278 -0.07415519 0.02542594 0.06684279
0.008116938 -0.017083101 -0.034639336 -0.05866367 0.021465085 -0.0835539 -0.075659364 -0.03198144
-0.083700836 0.082535006 -0.028480344 -0.046992946 0.022218779 0.038039215 0.06656247 -0.03568429
-0.015444852 -0.06674543 -0.07718053 -0.038458694 0.0099448785 -0.04381792 -0.024399646 0.03239823
0.018237375 0.054537557 0.04081597 0.046608843 -0.045694232 0.04740853 -0.079221904 0.027219206
-0.055745024 0.024406962 -0.08086718 -0.014639325 0.054366298 -0.044201422 0.0547167 -0.013742752
0.08292202 0.083275445 -0.052150622 -0.020702332 -0.018065214 -0.03342029 0.029055044 -0.080477655
-0.05300646 -0.01385612 -0.07864196 -0.08466055 0.036248684 -0.073800005 0.058725215 -0.05132253
00000000: f405 0bbd e78e 893d 6210 233d 722c 84bd
00000010: 2eb2 87bd c0a5 a23a 3f99 aebd ff01 7dbd
00000020: 9c9b 0d3d bc3c eebc 0042 4dbb 2dec 13bd
00000030: aa52 6a3d 47a5 943d d19e 823d a7f9 a0bd
00000040: fe11 d6bc 6658 2f3d 0621 563d 5448 a2bc
00000050: 823d 463d 2043 2bbb 08db 203c 42f0 733d
00000060: a2aa 773d 8c96 7fbd 49cc 5bbd ba40 003d
00000070: 3297 593d 7498 a8bc 1187 a03d 10d4 26bc
00000080: 8198 37bd 90d1 13bc 8512 9abd 8058 e03c
00000090: ae6c a6bd 2ff8 a73d 4b5a 89bd beab 6b3d
000000a0: c3c7 87bd 480d 53bc 1b80 48bd 52ff 383d
000000b0: 6afa 513d d845 a9bd 7967 9bbd 48a4 3e3c
000000c0: 003a f9ba 0059 063a 2020 dc3c a81a 8fbc
000000d0: a7c1 983d c003 ce3b 21c9 26bd f83e fb3c
000000e0: 6a72 8cbd 2d25 2dbd b01b d33c efe3 17bd
000000f0: 58d1 acbd a632 353d 0c5c ba3c 58bf d23c
00000100: 9cad fb3c fe9f b2bd 4fb9 1dbd d7dd 2fbd
00000110: 0b36 ad3d e486 18bd dcd7 6dbd 3e22 febc
00000120: 4025 0b3c 6ee6 113d 0d4f 853d 9bae 823d
00000130: 50b9 143c e1e8 a43d 5a7e 403d 222a 413d
00000140: 8b39 9bbd 009f ec3b 24c9 99bc c107 acbd
00000150: 36cb 32bd afbb 893d 3ac4 043d a74b a73d
00000160: f2da 763d 8040 31ba 69b1 a23d b8b9 983c
00000170: 28b8 54bc 06d1 1abd 0e5a 693d 664e 223d
00000180: be5e 7b3d 9092 7bbc c388 a7bd f04d 833c
00000190: 387a 1e3c 04a8 6bbd 448c af3c 3844 2fbc
000001a0: 3370 9a3d e04c 883b 78ce 32bd 0106 913d
000001b0: 2020 2c3b c037 73bc 56eb 2c3d 2f9d ae3d
000001c0: 6e14 253d 6056 233b 0f42 943d 03c6 1ebd
000001d0: dffa 9f3d 3a46 4ebd 4047 d43a 45bf a43d
000001e0: 3c2c 103d c4be 97bc 260d 5f3d 8a8d 553d
000001f0: 8c2b a3bd 5067 21bc e575 8ebd 9412 9cbc
00000200: 5890 2ebc ded4 10bd 1852 04bd aacd 433d
00000210: 0008 2cbb 2c1c b4bd 90ed 783c 7d05 b2bd
00000220: 095e 78bd 824c 5d3d 1561 8a3d a873 00bd
00000230: 0ed6 5bbd 5ad5 233d 0fec acbd 225b 5f3d
00000240: e260 793d dec4 183d 8cfe dc3c 60ba 953c
00000250: 93c5 8abd 1b05 11bd 9687 693d 7976 983d
00000260: 00b9 1a3b 4406 ba3c 96b2 abbd b693 7f3d
00000270: c3de 52bd 7612 42bd 4f9e b23d 1890 cfbc
00000280: 0ce8 36bd 4033 473c e1a7 8e3d 717b a43d
00000290: 9073 f23b 0e79 763d 0119 813d d008 72bc
000002a0: 7109 8fbd 40d8 1b3b f2f7 f5bc d4be fd3c
000002b0: 84a1 84bd 6ad7 72bd b253 88bd e66b 87bd
000002c0: 53b1 893d 4160 b4bd 003a 55bb 8770 5fbd
000002d0: 2b46 18bd f0aa d0bc 4ed8 293d 4671 733d
000002e0: f8e9 a2bc a0e3 3c3b 00df 7eba f1d8 a43d
000002f0: 2ecf 213d b057 96bc b627 753d 402a 92bd
00000300: 407d 0f3d 536b 8c3d e8e8 3bbd 3278 073d
00000310: 7a00 263d adde 97bd 104a d03c dfe4 883d
00000320: e8fc 043c dcf1 8bbc fae1 0dbd 5149 70bd
00000330: 8cd7 af3c 4f1e abbd 4cf3 9abd f8fe 02bd
00000340: 586b abbd 1d08 a93d 9c4f e9bc ad7b 40bd
00000350: 2804 b63c 02cf 1b3d e751 883d b129 12bd
00000360: 680c 7dbc d4b1 88bd d310 9ebd dd86 1dbd
00000370: d8ef 223c 6b7a 33bd c4e1 c7bc 02b4 043d
00000380: 8c66 953c c662 5f3d a62e 273d eae8 3e3d
00000390: e029 3bbd 722f 423d 183f a2bd d0fa de3c
000003a0: e554 64bd 1cf1 c73c b19d a5bd c8d9 6fbc
000003b0: 32af 5e3d 8d0c 35bd 9e1e 603d 4829 61bc
000003c0: 05d3 a93d 518c aa3d e49b 55bd f097 a9bc
000003d0: 80fd 93bc b7e3 08bd d804 ee3c 78d1 a4bd
000003e0: 4d1d 59bd c804 63bc 090f a1bd 8362 adbd
000003f0: 8079 143d 7524 97bd da89 703d 9337 52bd

lstm.bias_ih_l0 f4 [512]
-0.003679252 -0.004240813 -0.05024316 0.38547918 0.0073118596 -0.033254556 -0.070249304 -0.057369113
-0.09005341 -0.13542357 -0.14850079 -0.08427667 -0.01308654 -0.046891652 0.026055135 -0.068522796
-0.08048896 -0.0382681 0.010140063 -0.16429105 -0.09737933 0.09316121 0.0597036 -0.0036759397
-0.16065477 -0.027940586 0.064398356 0.071946554 -0.054360695 0.07305892 -0.019131394 0.09235065
0.10334868 -0.07267943 0.285801 0.031336557 0.03204522 -0.00982619 -0.07779178 0.026919836
-0.08187746 -0.0043091993 0.076637566 0.03289615 -0.054739498 0.05574798 0.039398354 0.049990892
0.102794744 -0.045772824 -0.031997263 -0.014891784 0.13526711 0.008853936 -0.13783799 -0.04534177
-0.059596654 0.07429892 0.05167413 -0.020597322 -0.050579097 0.030768188 -0.057032492 0.07498844
0.15058348 0.09286365 0.11953032 -0.056799132 -0.07762719 -0.033810347 -0.06534233 -0.014923842
0.019645797 -0.04834889 0.08286163 0.026233017 0.12304859 0.017199375 0.10880642 0.020309618
0.08504872 0.058735028 -0.019960314 0.0013857218 -0.01765524 0.08400768 0.096165076 -0.020162327
0.45215145 -0.040560815 -0.08890561 0.08487237 -0.0019100248 0.05776513 0.043512244 -0.00074051676
0.07525259 -0.0026483936 -0.010053557 0.03275842 -0.073010296 0.003593978 -0.055409964 -0.0008600537
0.04604111 -0.0798459 0.04175045 -0.1240309 0.06006129 0.007780999 -0.06030519 -0.039833035
0.029899385 -0.075300775 0.15063506 0.042214446 -0.04370226 0.046073526 0.15707363 0.0011872929
0.14789505 0.06936447 -0.09041789 0.0037925954 -0.054238766 0.08212 0.018726857 -0.02154584
-0.0068453103 0.088053115 -0.08490018 0.05134002 -0.048215732 -0.034764722 0.00824821 0.041501082
-0.01800371 -0.069844596 0.030903123 0.04706361 -0.06776858 -0.072304934 -0.02613565 0.015495576
-0.07492185 -0.08623986 0.0024662986 0.0071223825 0.02596248 -0.045736 -0.05610206 -0.020613171
0.018038817 0.035911642 -0.0008215606 -0.022143818 0.030091472 0.059335403 -0.07123585 -0.016516931
0.07792658 -0.06638475 -0.05819349 0.06542169 0.08550995 0.08316759 -0.08508626 -0.07493795
-0.06429001 -0.03799121 0.05524897 0.085814066 -0.084034346 0.043166436 0.03614404 -0.020423181
0.045503043 -0.07464727 0.059799008 0.084887825 -0.008064978 0.04998406 -0.0027622506 0.038221635
0.070327066 0.023391426 -0.046733562 -0.07258756 0.025967091 0.07931153 -0.07947168 0.027034841
0.06737817 0.06299887 -0.06264601 0.052983858 0.05069021 0.03953842 0.01917006 0.01456815
-0.060738 -0.04370549 0.06363832 -0.030180905 -0.02131717 -0.07012793 0.0066666007 -0.023642242
-0.07887141 -0.020953804 -0.018818565 -0.0007317737 -0.017649181 0.05454231 0.08632358 -0.06108489
-0.059725285 0.054358713 -0.046516623 0.019211322 -0.07700227 -0.071119696 -0.08536065 0.008444414
-0.023701452 0.016916335 -0.014633156 0.03343997 0.003082715 -0.004245758 0.04485307 -0.005047843
-0.0019230768 0.047324486 0.011085704 -0.02747392 0.03898836 0.049775578 -0.07981626 0.061222665
0.040678613 0.08590894 0.054012395 -0.008118577 0.062043928 -0.024371713 -0.07393573 0.064473666
-0.0875263 -0.01767391 0.042215563 -0.06156586 0.058261655 0.08257309 0.08338725 -0.08098341
00000000: 9b1f 71bb 85f6 8abb c6cb 4dbd 875d c53e
00000010: 5398 ef3b ee35 08bd dede 8fbd e0fb 6abd
00000020: ec6d b8bd 7aac 0abe 9710 18be 3f99 acbd
00000030: ed68 56bc 7611 40bd 9471 d53c ae55 8cbd
00000040: 65d7 a4bd 03bf 1cbd 8222 263c ea3b 28be
00000050: d06e c7bd 4ecb be3d c38b 743d 09e8 70bb
00000060: af82 24be a8e3 e4bc 49e3 833d b758 933d
00000070: 52a9 5ebd ea9f 953d 71b9 9cbc 5622 bd3d
00000080: 79a8 d33d f4d8 94bd 8254 923e c35a 003d
00000090: d941 033d 07fe 20bc 4c51 9fbd fd86 dc3c
000000a0: 5faf a7bd 2f34 8dbb 28f4 9c3d 1dbe 063d
000000b0: 8636 60bd fe57 643d 2b60 213d 40c3 4c3d
000000c0: 0d86 d23d 497c 3bbd 900f 03bd abfc 73bc
000000d0: 7683 0a3e 1910 113c 6725 0dbe 4bb8 39bd
000000e0: 9f1b 74bd 082a 983d 41a8 533d b7bb a8bc
000000f0: 072c 4fbd 910d fc3c e79a 69bd 8a93 993d
00000100: 8e32 1a3e 4c2f be3d 50cc f43d 35a6 68bd
00000110: 01fb 9ebd b87c 0abd 33d2 85bd 2183 74bc
00000120: 39f0 a03c 7c09 46bd 5cb3 a93d a0e6 d63c
00000130: e600 fc3d b4e5 8c3c e6d5 de3d 5b60 a63c
00000140: 062e ae3d 2494 703d d083 a3bc 1ca1 b53a
00000150: b9a1 90bc 380c ac3d 32f2 c43d 772b a5bc
00000160: 6580 e73e 1923 26bd 2514 b6bd 91d1 ad3d
00000170: cc59 faba 219b 6c3d e539 323d 3d1f 42ba
00000180: 081e 9a3d ac90 2dbb adb7 24bc b12d 063d
00000190: 6c86 95bd f288 6b3b 8ff5 62bd 3a75 61ba
000001a0: 9a95 3c3d 3f86 a3bd 8502 2b3d ea03 febd
000001b0: d402 763d c0f7 fe3b 9302 77bd f727 23bd
000001c0: 8eef f43c 4b37 9abd 1440 1a3e 0ee9 2c3d
000001d0: 2401 33bd 98b7 3c3d e9d7 203e f09e 9b3a
000001e0: cd71 173e f60e 8e3d 042d b9bd 318d 783b
000001f0: 7829 5ebd 882e a83d 1169 993c e780 b0bc
00000200: a04e e0bb 3155 b43d 25e0 adbd ea49 523d
00000210: dc7d 45bd 7465 0ebd 8023 073c 0afd 293d
00000220: 847c 93bc af0a 8fbd 8c28 fd3c c6c5 403d
00000230: 41ca 8abd 9c14 94bd 6e1a d6bc 28e1 7d3c
00000240: a070 99bd 869e b0bd a0a1 213b e062 e93b
00000250: 44af d43c ac55 3bbd 46cb 65bd f4dc a8bc
00000260: 24c6 933c 1618 133d 005e 57ba f466 b5bc
00000270: 6482 f63c ae09 733d 1ae4 91bd 844e 87bc
00000280: f997 9f3d baf4 87bd 4c5c 6ebd cffb 853d
00000290: d71f af3d c553 aa3d b541 aebd 1179 99bd
000002a0: 7baa 83bd ac9c 1bbd be4c 623d 49bf af3d
000002b0: 331a acbd 4acf 303d c60b 143d 844e a7bc
000002c0: 6661 3a3d abe0 98bd ceef 743d abd9 ad3d
000002d0: f822 04bc 16bc 4c3d e006 35bb 4a8e 1c3d
000002e0: a307 903d 609f bf3c b16b 3fbd c9a8 94bd
000002f0: f0b8 d43c 156e a23d 0cc2 a2bd 2c78 dd3c
00000300: 91fd 893d 8d05 813d 8d4c 80bd 9a05 593d
00000310: 8aa0 4f3d 0af3 213d 880a 9d3c 40af 6e3c
00000320: 69c8 78bd 8704 33bd cf54 823d f23d f7bc
00000330: 58a1 aebc 3b9f 8fbd 8073 da3b 60ad c1bc
00000340: 5587 a1bd 50a7 abbc 6429 9abc 80d4 3fba
00000350: 0495 90bc c267 5f3d 6bca b03d 2634 7abd
00000360: 80a2 74bd 3ea7 5e3d 3788 3ebd 1061 9d3c
00000370: 5eb3 9dbd 34a7 91bd 91d1 aebd 705a 0a3c
00000380: 8c29 c2bc 2094 8a3c e8bf 6fbc 5af8 083d
00000390: 6007 4a3b 0020 8bbb dab7 373d 6068 a5bb
000003a0: c00f fcba 52d7 413d d0a0 353c fc10 e1bc
000003b0: 42b2 1f3d 7ae1 4b3d b576 a3bd 9ec4 7a3d
000003c0: 9e9e 263d 07f1 af3d 1a3c 5d3d c803 05bc
000003d0: c621 7e3d 30a7 c7bc 9e6b 97bd c50a 843d
000003e0: fd40 b3bd e0c8 90bc 3aea 2c3d 7c2c 7cbd
000003f0: c6a3 6e3d 151c a93d efc6 aa3d a1da a5bd

lstm.bias_hh_l0 f4 [512]
-0.071847714 -0.08322576 -0.11750167 0.24319632 -0.005322162 -0.01610226 -0.025115408 0.076102376
-0.0053749764 -0.06119113 -0.13101093 0.010028914 -0.048715647 0.06505324 0.035574354 0.018726766
0.0062104664 -0.06863445 -0.026002293 -0.038901202 -0.13422279 0.024618724 0.0033626496 0.08869083
-0.023372028 -0.031611487 0.06483014 0.1528982 -0.003920786 -0.058360983 -0.051930252 0.080348715
0.03461243 0.029217487 0.22698976 0.13131097 -0.09208284 -0.047976874 -0.034089785 -0.057150066
0.018829213 -0.031927653 -0.0004250012 0.010678654 0.0055374284 0.029689487 0.0053038225 0.039864205
0.075112775 -0.07230925 0.0649667 0.0842078 0.0978454 0.02376535 -0.014089009 0.012548744
0.065294154 -0.0037578524 0.123464085 -0.04449424 -0.056508332 0.026461279 -0.049883 0.05897047
0.037206903 0.12071684 0.07658 -0.07187729 0.00043186327 0.007580903 -0.08934506 -0.0480905
0.0048165442 0.049149808 0.10253833 -0.054488126 0.06704724 0.019840527 0.052627906 -0.09675295
-0.04228503 -0.10017032 0.053008042 0.076267265 0.061317787 -0.008411907 0.029519225 0.044030886
0.45206383 0.065059274 0.02192363 0.076977804 0.011517042 0.03880961 0.106537424 0.0672681
-0.01628206 -0.044001292 0.0752142 0.079498805 0.008811393 0.09180789 -0.13702516 0.10395306
-0.03916863 -0.045834813 0.035676748 0.01672191 -0.0041608717 0.05234373 0.018260643 0.0037768122
-0.026342843 -0.051015723 0.07683368 -0.0053357426 -0.04309212 0.0175477 0.23724447 -0.07579746
0.19928662 0.08442847 -0.073964834 -0.07166556 0.08073211 0.08418113 -0.006155589 -0.10369156
-0.0057861432 0.032064363 0.057793118 -0.06752204 0.08177651 0.07685389 -0.056715116 0.058393054
-0.011163153 0.019130759 -0.059494324 0.08817435 -0.036344282 -0.03184734 0.015920922 -0.020944
0.047791637 -0.044792026 0.054061003 -0.048675638 -0.051119987 0.04129014 0.064923175 -0.08204732
-0.05498656 0.053509243 0.035453342 -0.074832916 -0.08206867 0.054755323 -0.060442805 0.010263488
-0.04602809 -0.049074546 0.04441496 -0.02284734 -0.08278585 0.05793064 -0.0075288415 0.07965135
-0.08407825 0.0504568 0.018446267 -0.027551353 -0.010798 0.01379855 -0.07768729 -0.082532294
0.062193893 0.051100247 0.059714384 0.05965095 -0.0026865974 0.06616699 0.013163179 0.034508534
0.08438284 0.027215593 0.04847581 0.012319505 -0.06965627 -0.062132187 0.045704626 0.050043665
-0.040378872 -0.022528753 0.029151112 0.061145626 -0.029493477 0.0020871833 0.08832102 -0.08280588
0.088043146 0.056108184 -0.03374222 0.07237766 0.0702366 0.04564812 -0.07662768 0.01281476
0.002152279 0.023346737 0.082806654 -0.07690011 -0.02972734 -0.0623129 0.03336352 -0.015559182
0.080318 0.01564458 0.08550667 -0.061119366 0.021364458 0.048937626 -0.007262051 0.04433792
-0.067771204 0.06282092 0.07104074 -0.020883292 -0.076455615 -0.028646477 -0.079206094 0.03401851
0.019273356 0.08281151 -0.01819396 -0.011463739 0.05357357 -0.042726576 0.046890236 -0.0025782883
0.08102844 0.07023469 0.035497077 0.052673228 0.07285123 0.027264662 0.074269734 0.053008653
0.062036358 0.074375905 0.06036181 0.014075033 0.08462807 0.060368232 -0.041431617 -0.03687001
00000000: e524 93bd 4472 aabd b7a4 f0bd 7508 793e
00000010: 8865 aebb e3e8 83bc d4be cdbc 90db 9b3d
00000020: 9220 b0bb 8da3 7abd bb27 06be 5050 243c
00000030: 0f8a 47bd a23a 853d 6ab6 113d e068 993c
00000040: 2b81 cb3b 3890 8cbd c302 d5bc de56 1fbd
00000050: b371 09be 35ad c93c e65f 5c3b 8aa3 b53d
00000060: b276 bfbc 0c7b 01bd aac5 843d 5991 1c3e
00000070: f079 80bb ed0b 6fbd d1b4 54bd de8d a43d
00000080: c3c5 0d3d 8359 ef3c 0170 683e 6276 063e
00000090: ee95 bcbd 6683 44bd bba1 0bbd 3016 6abd
000000a0: b93f 9a3c 92c6 02bd b2d2 deb9 85f5 2e3c
000000b0: 5173 b53b 5e37 f33c b0cb ad3b a648 233d
000000c0: bad4 993d df16 94bd 430d 853d 2475 ac3d
000000d0: 2b63 c83d 8daf c23c 96d5 66bc 3f99 4d3c
000000e0: f1b8 853d 4d46 76bb bdda fc3d 983f 36bd
000000f0: 4875 67bd 53c5 d83c 1e52 4cbd 058b 713d
00000100: 4466 183d 643a f73d fad5 9c3d 6734 93bd
00000110: b56b e239 3969 f83b 8bfa b6bd 8bfa 44bd
00000120: 1ad4 9d3b 4f51 493d 9eff d13d f12e 5fbd
00000130: 1050 893d 9a88 a23c 5c90 573d 6926 c6bd
00000140: 1133 2dbd 1926 cdbd f61e 593d 0332 9c3d
00000150: 5c28 7b3d 18d2 09bc 4dd2 f13c bb59 343d
00000160: e974 e73e cc3d 853d 2f99 b33c 8aa6 9d3d
00000170: fab1 3c3c d3f6 1e3d 4b30 da3d dcc3 893d
00000180: f461 85bc b33a 34bd e709 9a3d 45d0 a23d
00000190: a95d 103c c605 bc3d 5350 0cbe 58e5 d43d
000001a0: 496f 20bd 49bd 3bbd c821 123d 63fc 883c
000001b0: ec57 88bb 6166 563d 5897 953c 6584 773b
000001c0: f2cc d7bc ddf5 50bd fa5a 9d3d 74d7 aebb
000001d0: 5d81 30bd 32c0 8f3c 37f0 723e b33b 9bbd
000001e0: cb11 4c3e d5e8 ac3d e07a 97bd 65c5 92bd
000001f0: e056 a53d 2867 ac3d d3b4 c9bb 3e5c d4bd
00000200: b099 bdbb ec55 033d 7ab8 6c3d ff48 8abd
00000210: 717a a73d 9365 9d3d 1c4e 68bd 8e2d 6f3d
00000220: a8e5 36bc 1cb8 9c3c 52b0 73bd c194 b43d
00000230: bedd 14bd 5b72 02bd 986c 823c c092 abbc
00000240: 2ac1 433d d877 37bd 126f 5d3d 1b60 47bd
00000250: 3163 51bd da1f 293d 71f6 843d 6d08 a8bd
00000260: 9639 61bd 822c 5b3d 8637 113d 0042 99bd
00000270: 9e13 a8bd 1e47 603d e092 77bd 3028 283c
00000280: f387 3cbd 6402 49bd 76ec 353d 582a bbbc
00000290: a18b a9bd ae48 6d3d 80b4 f6bb 3f20 a33d
000002a0: 3831 acbd caab 4e3d a01c 973c 60b3 e1bc
000002b0: 18ea 30bc 5013 623c 841a 9fbd b106 a9bd
000002c0: 06bf 7e3d 7e4e 513d 1297 743d 8e54 743d
000002d0: a011 30bb 8f82 873d 60aa 573c d258 0d3d
000002e0: e9d0 ac3d 3cf3 de3c 928e 463d c0d7 493c
000002f0: f2a7 8ebd 527e 7ebd c634 3b3d 96fa 4c3d
00000300: 5164 25bd 388e b8bc 50ce ee3c d673 7a3d
00000310: 4e9c f1bc 20c9 083b a7e1 b43d 2196 a9bd
00000320: f74f b43d b2d1 653d 4835 0abd bd3a 943d
00000330: 35d8 8f3d 86f9 3a3d f9ee 9cbd 00f5 513c
00000340: 400d 0d3b a841 bf3c 8996 a93d ce7d 9dbd
00000350: c086 f3bc d03b 7fbd 30a8 083d f0eb 7ebc
00000360: c37d a43d 1029 803c 1f1e af3d 4d58 7abd
00000370: 8404 af3c d272 483d 80f6 edbb ae9b 353d
00000380: a1cb 8abd 41a8 803d cf7d 913d 7013 abbc
00000390: c394 9cbd 04ac eabc ce36 a2bd fe56 0b3d
000003a0: 28e3 9d3c 1599 a93d 800b 95bc 68d2 3bbc
000003b0: f66f 5b3d 1002 2fbd fa0f 403d 80f8 28bb
000003c0: 3df2 a53d 35d7 8f3d 6265 113d e2bf 573d
000003d0: 0733 953d 245a df3c bb1a 983d 9a1f 593d
000003e0: d619 7e3d 6552 983d f23d 773d f89a 663c
000003f0: 7b51 ad3d ae44 773d 33b4 29bd 0205 17bd

lstm.weight_ih_l1 f4 [512, 128]
-0.064652756 0.08975864 0.16554424 0.43612882 -0.22349544 0.11273387 0.22006339 -0.24364485
-0.15568134 -0.018095087 0.14897995 0.12173549 -0.10243236 0.15728588 -0.15613805 0.025550812
0.04677689 -0.17164226 -0.07679255 -0.0029389428 0.12290336 0.24946438 -0.11410907 -0.030810136
0.25397444 0.15839414 -0.089208506 -0.18845037 0.0008078124 0.045140848 0.23383403 0.05693977
0.15640227 0.02804823 -0.32399067 -0.32107544 -0.19835551 -0.19388047 0.023807501 -0.17840001
0.2295527 -0.21475586 -0.13209696 -0.074226074 0.031900525 0.107533306 0.16444612 0.12085421
0.1929598 -0.22029215 -0.2328012 0.26158512 0.28234875 -0.15011613 -0.19957384 0.05656723
-0.12570044 0.1880667 -0.24656089 0.30457085 -0.00835648 0.26661044 -0.043647222 -0.116603084
0.18854958 -0.14760964 0.16488148 0.13719553 0.13552721 -0.11864446 0.26584083 0.17450725
0.10000632 0.006313526 -0.24217059 0.12530884 -0.20827726 -0.18818568 0.24648362 0.120725065
-0.112095684 0.04189257 -0.23296484 0.2352909 -0.095037475 -0.20150302 -0.16287301 -0.091747284
0.18202323 -0.2298685 0.22656025 0.1598621 -0.11895012 0.2538246 -0.15369746 0.06593416
0.10249989 0.14025651 -0.09634417 0.1431156 0.08057972 0.22714336 -0.051477138 -0.23862699
0.044695955 0.022103492 0.19643521 0.030024562 -0.08836993 0.02316948 -0.14136621 0.10177977
-0.08491038 0.11613882 0.36363208 0.29121676 -0.181163 0.1219616 0.355841 0.19162439
-0.28423855 0.15056418 -0.085460946 0.43976805 -0.17654026 -0.045668628 0.16127534 0.21105194
-0.064557225 0.03938478 -0.0639994 -0.059804443 -0.03224921 0.00034361175 0.051559206 -0.06279699
0.032879926 0.07415348 -0.068285465 0.03499012 -0.042396422 -0.015154322 0.00042835937 -0.058581408
0.043845166 0.059340104 -0.031549465 -0.025049878 -0.026547914 -0.07389837 0.05909827 0.033372916
0.047223676 0.06030507 -0.0373906 0.051404018 -0.041755747 0.06729184 0.057734407 -0.016203336
-0.049157556 0.023643335 0.2088547 0.019801065 0.04272217 -0.023175335 -0.06787544 0.050845638
-0.050424714 0.11955504 0.03122929 -0.02265916 -0.018631337 -0.10944818 0.033951394 0.01846486
-0.07629185 0.07017504 -0.06734362 -0.07795053 -0.009966002 0.036010426 -0.10108458 0.074202925
0.01985207 -0.032773525 0.033982143 0.044494674 -0.037022635 -0.02821624 -0.0146489255 0.08040044
-0.013252546 -0.052641977 0.024671301 0.031201238 0.03927472 -0.056479998 -0.06629052 0.013691939
0.0625221 -0.025886012 0.071735136 0.082135655 0.14527476 -0.0639145 -0.06595568 -0.08203928
-0.012340244 -0.08249874 0.018490393 -0.06917683 -0.03963709 0.08139781 0.017533865 -0.04960767
0.17488043 -0.033719834 -0.030416165 0.03705377 0.026782595 -0.01475536 0.037703276 0.028051144
-0.025672985 -0.05477493 -0.0634549 -0.10372402 0.07506626 -0.08009558 -0.049234916 0.019522185
-0.07470959 0.0378134 -0.06751474 -0.06897361 -0.043942504 -0.10217485 -0.037189506 -0.016615877
0.0065704687 -0.01123052 -0.003633518 -0.018851362 0.056717273 -0.098437935 0.18075627 -0.06540501
0.05481933 -0.04923793 -0.09764324 -0.07758976 0.087876156 0.091788635 -0.039795484 0.07014855
00000000: aa68 84bd 61d3 b73d 6e84 293e 474c df3e
00000010: fddb 64be 04e1 e63d 4c58 613e 097e 79be
00000020: ee6a 1fbe 263c 94bc 338e 183e 7550 f93d
00000030: 0fc8 d1bd 8d0f 213e a7e2 1fbe f04f d13c
00000040: 2099 3f3d fdc2 2fbe 6a45 9dbd 479b 40bb
00000050: c2b4 fb3d 9773 7f3e 04b2 e9bd 8a65 fcbc
00000060: f008 823e 1332 223e f3b2 b6bd 22f9 40be
00000070: 5fc3 533a 9ce5 383d 3072 6f3e ad39 693d
00000080: eb27 203e 67c5 e53c 1be2 a5be 0064 a4be
00000090: b51d 4bbe 9a88 46be f307 c33c 7eae 36be
000000a0: dd0f 6b3e f6e8 5bbe 6d44 07be d703 98bd
000000b0: 20aa 023d 6c3a dc3d 9064 283e 6982 f73d
000000c0: 4197 453e 4494 61be 7063 6ebe 7cee 853e
000000d0: 0490 903e 0bb8 19be 165d 4cbe 0ab3 673d
000000e0: 9eb7 00be 8f94 403e 757a 7cbe b6f0 9b3e
000000f0: 9ee9 08bc 2a81 883e 6ec7 32bd 99cd eebd
00000100: 2413 413e fb26 17be b1d6 283e fc7c 0c3e
00000110: a5c7 0a3e defb f2bd 4a1c 883e 07b2 323e
00000120: 1dd0 cc3d b2e1 ce3b 91fb 77be f650 003e
00000130: a246 55be bfb3 40be 3466 7c3e b43e f73d
00000140: 6c92 e5bd 8b97 2b3d 568e 6ebe 19f0 703e
00000150: 02a3 c2bd cf56 4ebe 2fc8 26be 00e6 bbbd
00000160: 4c64 3a3e a662 6bbe 69ff 673e e4b2 233e
00000170: 1f9c f3bd 4cf5 813e de62 1dbe 7d08 873d
00000180: 76eb d13d 679f 0f3e 1850 c5bd e58c 123e
00000190: fb06 a53d 4598 683e b1d9 52bd a25a 74be
000001a0: 1b13 373d 6212 b53c 5026 493e 12f6 f53c
000001b0: 4bfb b4bd eccd bd3c 4ec2 10be e971 d03d
000001c0: 7ee5 adbd 31da ed3d fc2d ba3e 5d1a 953e
000001d0: cb82 39be 01c7 f93d cb30 b63e 2f39 443e
000001e0: b787 91be 7f2d 1a3e 2606 afbd 4729 e13e
000001f0: f8c6 34be 070f 3bbd 5d25 253e 001e 583e
00000200: 9436 84bd ef51 213d 1e12 83bd 81f5 74bd
00000210: bf17 04bd ca26 b439 bf2f 533d b59b 80bd
00000220: 1aad 063d c8dd 973d 40d9 8bbd cd51 0f3d
00000230: dfa7 2dbd d549 78bc 6c95 e039 0ff3 6fbd
00000240: fd96 333d 9c0e 733d 033a 01bd 6735 cdbc
00000250: 037b d9bc 0758 97bd 0711 723d 0ab2 083d
00000260: 9d6d 413d 7302 773d e326 19bd 058d 523d
00000270: 1308 2bbd 4ed0 893d ea7a 6c3d dcbc 84bc
00000280: 6f59 49bd abaf c13c 02de 553e d835 a23c
00000290: 71fd 2e3d 33da bdbc 4702 8bbd 8443 503d
000002a0: 258a 4ebd 46d9 f43d 91d4 ff3c b49f b9bc
000002b0: bfa0 98bc 5e26 e0bd 9e10 0b3d 9e43 973c
000002c0: e73e 9cbd eeb7 8f3d 74eb 89bd 87a4 9fbd
000002d0: 7148 23bc ab7f 133d 6f05 cfbd b4f7 973d
000002e0: cfa0 a23c 883d 06bd dc30 0b3d 0c40 363d
000002f0: 0ca5 17bd bf25 e7bc 0c02 70bc fca8 a43d
00000300: 3521 59bc 1d9f 57bd 781b ca3c bd99 ff3c
00000310: 87de 203d 9257 67bd 53c3 87bd 2854 603c
00000320: 960b 803d e70e d4bc dfe9 923d bd36 a83d
00000330: e8c2 143e 9be5 82bd c613 87bd 3604 a8bd
00000340: bc2e 4abc 19f5 a8bd 2a79 973c 95ac 8dbd
00000350: 805a 22bd e5b3 a63d 2ea3 8f3c 6a31 4bbd
00000360: db13 333e cf1d 0abd 522b f9bc b2c5 173d
00000370: 2c67 db3c 77c0 71bc c06e 1a3d 83cb e53c
00000380: 2750 d2bc ad5b 60bd a5f4 81bd 426d d4bd
00000390: 57bc 993d 2709 a4bd 8daa 49bd fdec 9f3c
000003a0: 5701 99bd 39e2 1a3d 2b45 8abd 0942 8dbd
000003b0: 0efd 33bd 0c41 d1bd 0654 18bd 051e 88bc
000003c0: 164d d73b 3700 38bc 5120 6ebb 2c6e 9abc
000003d0: 5f50 683d d499 c9bd 2c18 393e 10f3 85bd
000003e0: 3c8a 603d b6ad 49bd 2ef9 c7bd 61e7 9ebd
000003f0: 6af8 b33d aefb bb3d 9700 23bd 0baa 8f3d

lstm.weight_hh_l1 f4 [512, 128]
-0.0020002052 0.047884725 0.06984652 0.045656957 0.032191634 -0.015510745 -0.05026328 -0.018849358
0.021999083 0.08764424 0.08547377 0.04837232 0.055452965 0.008334979 0.003858775 -0.027442466
-0.034744006 0.08753329 -0.045140084 -0.0575158 -0.017817952 -0.07657161 -0.001247406 -0.037288804
0.07171204 0.04300604 0.051099055 -0.044618655 0.07566003 0.036636434 -0.0072174296 -0.072110444
-0.019684948 0.03741496 0.069457926 0.08714775 0.07755365 0.07107372 0.018678725 -0.07617723
-0.07451236 -0.07183726 0.016019985 -0.0025072321 0.023376241 -0.054203343 0.028549403 -0.08803176
-0.0032008514 0.072008125 0.0059448555 0.08290783 -0.056867983 -0.026292995 0.0342016 0.048723184
0.04172156 -0.047944073 0.009090729 -0.04800937 -0.019252941 0.048042767 -0.053031914 0.08665585
0.049599268 -0.05918462 0.07177778 0.03978113 0.04875841 -0.04932925 0.0019992813 0.007712275
0.010015376 0.08695341 -0.08606517 0.009171851 0.034237742 0.03725002 0.07948207 -0.013003759
0.04390899 0.06836804 -0.016216777 0.06636768 0.07029661 -0.009845376 -0.008301668 -0.08066985
0.051494695 0.029450163 0.027787931 0.079162575 -0.07015985 0.031141609 0.015482329 -0.04618737
0.078106575 -0.024823219 -0.044994995 0.021428943 0.08795815 -0.08832994 -0.01886674 -0.06425541
0.07277962 0.05825039 -0.08618991 -0.07747374 -0.04734268 -0.06918497 0.08410137 0.025527135
0.06532798 0.048714258 -0.08080029 0.049393006 -0.04692214 0.046466492 0.04770691 -0.027088884
0.034824863 0.0035254657 -0.08351101 -0.0071104765 -0.04578432 0.018032469 0.05502028 -0.06563338
0.018614464 -0.021424875 0.014321007 0.017193101 0.088314794 -0.06530532 -0.05305542 0.07003645
-0.078587644 0.07410454 0.07544454 0.069492064 -0.06036619 -0.018871747 -0.06770261 0.0784292
-0.07448182 0.0719155 0.072413765 0.010378696 -0.03199407 0.020894334 -0.052066296 0.06699944
0.026095062 0.08589604 -0.0007546693 0.0792534 -0.04270172 -0.06854418 0.07358117 0.011325397
-0.040143017 0.027268797 0.05169902 0.07914006 -0.056434378 0.08450199 -0.04794243 -0.0091897845
-0.042725313 0.026986733 0.058628075 0.027464569 -0.030419637 0.062460013 -0.055634134 0.054175414
0.059616096 0.052568786 -0.0072113276 -0.08035901 -0.023364857 0.06834275 0.06847852 -0.04023276
-0.06539613 0.044980712 0.059053756 0.031615846 -0.021395981 -0.0028791577 0.061208285 0.08029061
0.009121031 -0.017107636 -0.006433293 0.049783535 -0.032753497 0.019906797 0.029649884 -0.0851309
-0.05648846 0.026925981 -0.070750356 -0.021544985 0.08479489 -0.012335733 0.01621794 0.009405449
-0.04662748 -0.0578691 0.009635583 0.056373112 0.0710629 0.08120129 0.0015967563 0.031569973
0.016238086 -0.007598974 0.06364437 -0.06433165 -0.077357866 0.08534352 0.04256954 -0.07916936
-0.040675607 -0.07178578 0.009222686 0.050458215 -0.02680451 0.017687619 -0.04929935 0.03733491
0.034554027 0.024763219 0.082178004 -0.025045857 -0.046258714 -0.049851313 -0.07987205 -0.056940634
-0.08543361 -0.04327669 0.05778051 0.0497111 -0.0598386 -0.005718723 0.0838236 -0.06594891
-0.0342295 0.0055846274 -0.041893557 0.03821156 0.05994054 -0.045743596 0.040610544 0.053294666
00000000: e015 03bb c622 443d b10b 8f3d ca02 3b3d
00000010: 60db 033d c820 7ebc dee0 4dbd f869 9abc
00000020: 6c37 b43c d37e b33d df0c af3d 0e22 463d
00000030: a622 633d 708f 083c 80e3 7c3b 06cf e0bc
00000040: bb4f 0ebd a744 b33d cfe4 38bd b095 6bbd
00000050: f4f6 91bc 94d1 9cbd 0080 a3ba 25bc 18bd
00000060: c3dd 923d 1a27 303d 3e4d 513d 0dc2 36bd
00000070: a5f3 9a3d 1610 163d 3080 ecbb a4ae 93bd
00000080: 5442 a1bc 6e40 193d f53f 8e3d 857a b23d
00000090: 73d4 9e3d 198f 913d 2004 993c cf02 9cbd
000000a0: f099 98bd 6a1f 93bd 583c 833c 6050 24bb
000000b0: 887f bf3c 5304 5ebd 70e0 e93c ff49 b4bd
000000c0: 60c5 51bb ff78 933d 10cd c23b 95cb a93d
000000d0: 67ee 68bd 6864 d7bc fa16 0c3d f691 473d
000000e0: 3ae4 2a3d 0161 44bd 48f1 143c 79a5 44bd
000000f0: 58b8 9dbc 7ec8 443d fe37 59bd 9f78 b13d
00000100: 9a28 4b3d 926b 72bd 3b00 933d 8af1 223d
00000110: e6b6 473d 780d 4abd 6006 033b 40b7 fc3b
00000120: 8817 243c a114 b23d f042 b0bd 8845 163c
00000130: e03c 0c3d 7a93 183d 7fc7 a23d b80d 55bc
00000140: ead9 333d 8b04 8c3d 0cd9 84bc c7eb 873d
00000150: abf7 8f3d 804e 21bc b803 08bc 3c36 a5bd
00000160: 1aec 523d 7841 f13c 84a3 e33c fd1f a23d
00000170: f8af 8fbd b01c ff3c 98a9 7d3c f82e 3dbd
00000180: 57f6 9f3d 105a cbbc ac4c 38bd c08b af3c
00000190: 6723 b43d 54e6 b4bd 6c8e 9abc 5798 83bd
000001a0: 7b0d 953d f697 6e3d 5684 b0bd 8daa 9ebd
000001b0: 66ea 41bd d9b0 8dbd 573d ac3d 481e d13c
000001c0: adca 853d 9a88 473d 9f7a a5bd 5250 4a3d
000001d0: 6e31 40bd a653 3e3d 5268 433d 82e9 ddbc
000001e0: 84a4 0e3d 800b 673b d207 abbd 00ff e8bb
000001f0: 5788 3bbd d4b8 933c f25c 613d cb6a 86bd
00000200: 5c7d 983c 3883 afbc a8a2 6a3c 8cd8 8c3c
00000210: 63de b43d ccbe 85bd a450 59bd 456f 8f3d
00000220: 8ff2 a0bd 1fc4 973d ab82 9a3d db51 8e3d
00000230: 8a42 77bd ec98 9abc aaa7 8abd 7d9f a03d
00000240: ed89 98bd 6f48 933d ab4d 943d 680b 2a3c
00000250: 370c 03bd 982a ab3c 7843 55bd 0137 893d
00000260: 50c5 d53c 43ea af3d 00d5 45ba 9b4f a23d
00000270: 00e8 2ebd e460 8cbd b9b1 963d 288e 393c
00000280: 016d 24bd d062 df3c 5ac2 533d 2f14 a23d
00000290: bc27 67bd 610f ad3d 485f 44bd c090 16bc
000002a0: bd00 2fbd 4813 dd3c fe23 703d 60fd e03c
000002b0: 9a32 f9bc 12d6 7f3d 9ee0 63bd 0ae7 5d3d
000002c0: 0230 743d 5e52 573d 004d ecbb 4493 a4bd
000002d0: a867 bfbc 49f7 8b3d 773e 8c3d 1bcb 24bd
000002e0: 68ee 85bd b23d 383d 5ae2 713d 9e7f 013d
000002f0: a046 afbc 40b0 3cbb 8ab5 7a3d 676f a43d
00000300: 6070 153c 5025 8cbc 60ce d2bb d2e9 4b3d
00000310: 8828 06bd 9413 a33c 50e4 f23c 1c59 aebd
00000320: 7260 67bd e093 dc3c 90e5 90bd 1c7f b0bc
00000330: f1a8 ad3d d01b 4abc 7cdb 843c 5019 1a3c
00000340: 75fc 3ebd 2608 6dbd 90de 1d3c 7ee7 663d
00000350: 6d89 913d dd4c a63d 404a d13a 844f 013d
00000360: bc05 853c d000 f9bb fb57 823d 50c0 83bd
00000370: cd6d 9ebd 95c8 ae3d 665d 2e3d 8c23 a2bd
00000380: 779b 26bd 6c04 93bd c01a 173c 46ad 4e3d
00000390: 2295 dbbc a0e5 903c 1dee 49bd 7eec 183d
000003a0: 8688 0d3d 3cdc ca3c f14c a83d f82c cdbc
000003b0: c779 3dbd e430 4cbd f593 a3bd 953a 69bd
000003c0: d1f7 aebd e642 31bd 42ab 6c3d de9d 4b3d
000003d0: 5219 75bd 2064 bbbb b5ab ab3d 3910 87bd
000003e0: 3b34 0cbd 40ff b63b 9498 2bbd ba83 1c3d
000003f0: 3684 753d a35d 3bbd 3e57 263d 824b 5a3d

lstm.bias_ih_l1 f4 [512]
0.112380944 0.025641773 0.104644485 0.031975444 -0.07304968 0.042259794 -0.024423916 -0.06104583
0.006018536 -0.0070064743 -0.22628543 -0.075040445 -0.07209382 0.08259055 0.036631487 -0.043145083
-0.036074404 -0.01700383 0.042960517 -0.06323855 -0.048080437 -0.0008197371 0.044997845 0.011061001
0.02127874 -0.04724754 0.038068846 0.04674875 0.06851437 0.18664129 0.032386653 -0.048157275
0.06433315 -0.1037281 -0.12400966 -0.086538 -0.01517252 0.09306247 -0.034470387 0.01361609
-0.04204483 -0.10273374 -0.19983041 -0.010627281 0.02313448 0.03651191 -0.01372547 0.029368425
-0.050081357 -0.09307956 -0.0381099 -0.122934386 -0.028711943 -0.050101858 -0.028368078 -0.060151797
-0.05599651 0.058534462 -0.156611 -0.054444473 0.0632735 -0.11035506 -0.03704799 0.060434368
-0.0077347057 -0.02064011 -0.05120627 -0.14620541 -0.045802183 0.027981147 -0.07919743 -0.16040091
-0.054769836 -0.06360065 -0.0150387995 -0.06938669 -0.12110972 -0.04137912 0.0011822031 -0.074212745
-0.07325478 -0.06317017 0.05683515 -0.058054693 0.06497493 -0.115106285 -0.108162776 0.07094905
0.0923507 -0.098981045 0.09212807 0.06308362 0.058482043 0.05768821 -0.0676108 0.08992836
-0.106914416 -0.07698441 0.04913613 -0.023939619 -0.041830678 -0.09294872 0.063137054 0.025544511
-0.10528079 -0.07176976 0.068933904 0.007419811 -0.069322154 -0.058349565 -0.1323255 -0.051229306
0.041291665 0.043466732 -0.06559617 -0.021008363 0.07151718 0.07461161 -0.054056857 0.07887978
-0.050287727 0.079450674 0.066233784 0.038586423 -0.06713034 -0.07784355 -0.053029936 -0.034564417
0.030704789 -0.07735598 0.06989113 0.015098549 0.050456338 -0.084170215 -0.02418968 0.053928353
0.041626893 0.04848171 0.053743936 0.0027868897 0.056523778 0.012733623 -0.07246551 0.071588136
-0.0066643655 -0.037352495 -0.061056018 0.043038182 0.008230858 0.013118863 0.010024831 -0.017895833
-0.047087513 -0.087884694 -0.034788504 0.0311127 -0.026604325 -0.039294824 -0.020894974 -0.010883287
-0.06676246 -0.004406914 0.08811616 0.079341255 0.040018626 -0.07403599 -0.06338317 -0.047889713
0.050466277 -0.0066163465 -0.023021832 -0.041513253 0.028210782 -0.051004965 -0.06136716 -0.040138476
0.03252393 -0.02897951 -0.06490557 0.0016254261 0.07362632 0.030947492 0.05454152 -0.03153734
0.044346057 0.058697082 -0.026256181 0.04519061 0.062086143 -0.0038504526 0.03900408 0.0028588325
-0.066028684 0.03685727 -0.07831565 0.059822924 0.05954688 0.038784377 -0.016276546 0.07078857
-0.02487906 0.042419784 -0.02440729 -0.022493139 0.012360267 0.03371612 0.047715835 0.059360005
0.017689057 0.063150935 -0.044724338 -0.08758792 -0.057596944 -0.04726726 0.08507808 -0.025713287
0.07662126 -0.025992699 0.03170655 -0.013356201 -0.023096286 0.083393194 -0.07866909 0.07801106
-0.006407857 -0.08103271 -0.07960034 -0.028527737 0.07887421 -0.052382864 -0.030425072 0.07383364
0.018321827 -0.04725061 0.03933721 -0.034250192 0.0874828 0.06948418 0.077067845 -0.017047822
-0.037430003 -0.07990407 0.07202143 -0.06527959 -0.07702087 0.011090249 -0.077439256 -0.034645393
-0.068307236 0.07899263 0.06614832 -0.070383795 0.078879915 0.042929776 -0.051777013 0.007632993
00000000: fb27 e63d b20e d23c d94f d63d aff8 023d
00000010: 129b 95bd 9b18 2d3d aa14 c8bc 310b 7abd
00000020: 2437 c53b 9196 e5bb 5eb7 67be ceae 99bd
00000030: eda5 93bd 3c25 a93d e60a 163d e6b8 30bd
00000040: c1c2 13bd 9e4b 8bbc 5ef7 2f3d 3783 81bd
00000050: feef 44bd a0e3 56ba a94f 383d 3339 353c
00000060: c150 ae3c a386 41bd 14ee 1b3d 9e7b 3f3d
00000070: 4351 8c3d e51e 3f3e dea7 043d 9040 45bd
00000080: 19c1 833d 666f d4bd c7f8 fdbd d63a b1bd
00000090: 2996 78bc 8997 be3d d230 0dbd 0516 5f3c
000000a0: 3337 2cbd 1166 d2bd 58a0 4cbe 0c1e 2ebc
000000b0: 8584 bd3c 838d 153d cbe0 60bc 0d96 f03c
000000c0: 1c22 4dbd 7fa0 bebd 2019 1cbd 06c5 fbbd
000000d0: 4f35 ebbc 9b37 4dbd 2c64 e8bc bb61 76bd
000000e0: 995c 65bd d5c1 6f3d a25e 20be 2b01 5fbd
000000f0: 8995 813d d501 e2bd a2bf 17bd 078a 773d
00000100: 6a73 fdbb 7315 a9bc aabd 51bd dfb6 15be
00000110: 129b 3bbd b838 e53c 4332 a2bd 2340 24be
00000120: 5656 60bd 0f41 82bd 4c65 76bc 9c1a 8ebd
00000130: 5f08 f8bd 277d 29bd 27f4 9a3a dafc 97bd
00000140: 9a06 96bd 5d5f 81bd f9cb 683d c2ca 6dbd
00000150: 9311 853d d8bc ebbd 7284 ddbd bc4d 913d
00000160: 5d22 bd3d 93b6 cabd a4ad bc3d fc31 813d
00000170: de8a 6f3d 794a 6c3d 8877 8abd 5c2c b83d
00000180: f2f5 dabd 01aa 9dbd f742 493d 051d c4bc
00000190: a556 2bbd e65b bebd 004e 813d b942 d13c
000001a0: 749d d7bd 06fc 92bd 382d 8d3d e321 f33b
000001b0: c6f8 8dbd f4ff 6ebd 5680 07be d2d5 51bd
000001c0: 7321 293d 2c0a 323d 4957 86bd bb19 acbc
000001d0: 9977 923d f9cd 983d b96a 5dbd b98b a13d
000001e0: 81fa 4dbd 09b7 a23d 94a5 873d cc0c 1e3d
000001f0: a27b 89bd 706c 9fbd eb35 59bd 6b93 0dbd
00000200: 9c88 fb3c d06c 9ebd 1523 8f3d e85f 773c
00000210: 4eab 4e3d 6f61 acbd 7029 c6bc fae3 5c3d
00000220: f680 2a3d c294 463d 9a22 5c3d 40a4 363b
00000230: 7a85 673d b0a0 503c cc68 94bd cd9c 923d
00000240: c060 dabb eefe 18bd e015 7abd ce48 303d
00000250: b8da 063c 80f0 563c 303f 243c 489a 92bc
00000260: d6de 40bd e4fc b3bd 647e 0ebd 10e0 fe3c
00000270: 50f1 d9bc 9cf3 20bd f02b abbc d04f 32bc
00000280: c2ba 88bd e067 90bb 3f76 b43d ab7d a23d
00000290: 92ea 233d 2ea0 97bd 09cf 81bd 0128 44bd
000002a0: bab5 4e3d f0cd d8bb 4898 bcbc cd09 2abd
000002b0: 4c1a e73c 95ea 50bd 225c 7bbd 3e68 24bd
000002c0: d037 053d 7066 edbc 36ed 84bd 400c d53a
000002d0: 65c9 963d 9885 fd3c ee66 5f3d 4c2d 01bd
000002e0: 36a4 353d 5a6c 703d 3417 d7bc ca19 393d
000002f0: 0a4e 7e3d e057 7cbb bec2 1f3d 405b 3b3b
00000300: 0c3a 87bd a6f7 163d f563 a0bd e208 753d
00000310: 6ee7 733d 5edc 1e3d 6456 85bc 99f9 903d
00000320: 2ccf cbbc 5ec0 2d3d ccf1 c7bc 8843 b8bc
00000330: b882 4a3c ea19 0a3d ae71 433d 7a23 733d
00000340: a4e8 903c 4755 813d de30 37bd 4c61 b3bd
00000350: c6ea 6bbd 509b 41bd 6b3d ae3d aca4 d2bc
00000360: 9beb 9c3d a4ee d4bc bade 013d f8d3 5abc
00000370: 6c34 bdbc 0dca aa3d 431d a1bd 43c4 9f3d
00000380: 00f9 d1bb 7af4 a5bd 8105 a3bd 00b3 e9bc
00000390: cd88 a13d 6a8f 56bd 003e f9bc 1736 973d
000003a0: a817 963c db89 41bd 0e20 213d ee49 0cbd
000003b0: 2f2a b33d b94d 8e3d bfd5 9d3d e0a7 8bbc
000003c0: 3450 19bd bfa4 a3bd f97f 933d 4eb1 85bd
000003d0: 1ebd 9dbd e0b3 353c 7998 9ebd 54e8 0dbd
000003e0: aae4 8bbd e3c6 a13d c578 873d 6125 90bd
000003f0: cb8b a13d 22d7 2f3d 2214 54bd 301e fa3b
