weights/multifactor_time_lstm.pth (torch, 838185 bytes, 9 tensors)

lstm.weight_ih_l0 f4 [512, 20]
000000 61 c1 b3 3d d8 ff 9c 3d 0a bf f9 bb 51 49 a6 3d
       0.087771185 0.07665986 -0.0076216506 0.08119453
000010 f2 0b 53 3c 60 24 4d 3d 70 64 15 bd a5 d4 1a 3d
       0.012881266 0.050083518 -0.036472738 0.03780045
000020 36 b3 9e 3d 6c 2c 45 bd 04 a4 ac 3d c5 9a bf 3c
       0.077490255 -0.048138067 0.08429721 0.02338923
000030 55 e5 a4 3d 94 4c ab 3c 8e 92 48 3d 40 de 12 3b
       0.08051554 0.020910539 0.04896789 0.0022410303
000040 ac 1c 83 3d af 51 e6 3c cc 38 47 bd bd e8 12 3d
       0.06401953 0.028115122 -0.04863815 0.035866488
000050 80 c2 0a be 2d 2f 23 bd b5 ac 54 bd 7a 2a 70 3d
       -0.13550758 -0.039839912 -0.05192252 0.05863426
000060 5a 32 ea bd de c1 ae bd 7e 00 aa bd 23 a1 a1 bd
       -0.11435385 -0.08533071 -0.08300875 -0.078920625
000070 f2 ab 3f bd e8 bf ef bd ea fb 16 3d d8 94 e9 bd
       -0.04679484 -0.11706525 0.036861338 -0.11405343
000080 ce 88 f2 3c b5 90 c8 bc d5 5f 9e bd 1a 6d 98 3c
       0.02960625 -0.024483064 -0.07733122 0.018606711
000090 d2 ff 17 bd 46 4f f9 3c eb 9e 3c bd 43 93 8d bd
       -0.037109204 0.030433308 -0.046049993 -0.069128536
0000a0 7c 9d 1e 3e 46 68 b6 3c fd d7 aa bd 39 9e a1 3d
       0.15489763 0.022266518 -0.08341978 0.07891507
0000b0 79 04 14 3e aa 83 60 3d 08 38 e9 3d ae 8b 6a 3d
       0.14454831 0.054813065 0.1138764 0.057262115
0000c0 4d 24 7d 3d fd 3d c8 bc 93 df 53 bd e6 6b e8 3c
       0.061802197 -0.02444362 -0.05172689 0.028371762
0000d0 25 22 eb bc 85 ed 0e 3e d7 7d 89 3d 45 2b b8 3d
       -0.028702805 0.13957794 0.06713455 0.08992628
0000e0 42 8d 93 3d 5f ae 63 3d a0 65 eb 3d df d1 b1 3c
       0.07204677 0.055586215 0.11493993 0.02170652
0000f0 e3 cc 04 bc b4 f7 9e bd fe b4 8b 3c 02 5c f9 bc
       -0.008105489 -0.07762089 0.017054077 -0.03043938
000100 9b 2f be 3d a3 02 42 3d e0 b4 65 3d c5 60 8b bd
       0.09286424 0.047365796 0.0560807 -0.06805567
000110 f5 46 e3 bd e3 09 08 be d7 ac 89 3d 3e 8b e1 3c
       -0.11097518 -0.13285021 0.0672242 0.027532216
000120 0a d1 98 3d 96 a5 9b bd e5 70 d0 bd 7e b7 95 bd
       0.07461746 -0.075999424 -0.10177783 -0.07310389
000130 4c a2 a5 bd ad ad e0 3c d3 22 e5 3b 7e 3e 48 3d
       -0.08087596 0.027426565 0.0069926768 0.048887722
000140 dc 8d 95 bd a5 1c 97 bd 16 be 67 3d 70 56 12 bd
       -0.07302448 -0.073785104 0.056577764 -0.035726964
000150 02 e0 b3 3d bb 6e 58 3c 95 5f f5 3c 1c bb c3 bd
       0.087829605 0.013209994 0.029952804 -0.09557173
000160 d0 81 64 bd 8c ca 20 3d 79 66 b0 3b 80 e4 26 bd
       -0.05578786 0.039255664 0.0053833094 -0.04074526
000170 61 2a 41 3d 6d 6c 43 3d 3d af 88 bd bb 2f 2c bd
       0.047159556 0.047710825 -0.06674049 -0.042037707
000180 90 81 8d 3d 01 ca 95 bc 45 cc 4a bd cb 0c c4 bd
       0.06909478 -0.0182848 -0.049511213 -0.095727526
000190 db a6 f4 bc 05 a4 85 bd 33 b3 86 bd 3f 66 83 bd
       -0.02986472 -0.06525425 -0.06577148 -0.06415986
0001a0 1f a6 0f be fe 98 4f be a3 13 d1 bd 26 45 d1 bd
       -0.14028214 -0.20273206 -0.102088235 -0.10218267
0001b0 1e 16 33 be 01 36 06 be 15 f7 8b bc 3f 0c 72 bd
       -0.17488906 -0.13106538 -0.017085591 -0.05909371
0001c0 65 1c 4a bd ab e2 1c be b0 ce d6 bd db 19 d8 bd
       -0.049343485 -0.15320842 -0.10488641 -0.105518065
0001d0 0d 51 e6 bc be 9e 07 be 5b 8f a2 bd 67 be c7 bd
       -0.02811482 -0.13244149 -0.07937499 -0.09753113
0001e0 b4 9f 93 bc d0 04 fa bb 4b 4f e5 bc 02 54 75 bd
       -0.018020488 -0.007629968 -0.027991911 -0.05989457
0001f0 fe 6e e9 3d d2 13 fc 3d ca 8c 9e bb 9d 79 86 bd
       0.11398123 0.12308468 -0.0048385607 -0.06566165
000200 9d ed af 3d 8d 4f 3b 3d ef ea cd 3d 72 57 a7 3d
       0.08590243 0.045730162 0.10054576 0.08170976
000210 5e 59 64 bd 5e e4 c9 3d a6 89 17 bc ed f5 6c bc
       -0.05574929 0.09858011 -0.009249127 -0.01446293
000220 b6 7f 93 bd a5 52 a3 bd 6d 30 a1 3c fe c0 9b 3c
       -0.07202093 -0.079747476 0.019676412 0.019012924
000230 c3 34 17 bd 58 8a 69 be 73 f4 89 bd bf e0 84 bd
       -0.036915552 -0.2280668 -0.06736078 -0.064881794
000240 f3 a5 74 be 82 1d 52 be a1 27 91 bd ff da ac bd
       -0.2389143 -0.20519069 -0.07087637 -0.08440208
000250 ea fa 22 bd 69 6a 34 be be 8e 30 be d7 0f 58 be
       -0.03979007 -0.17618717 -0.17241952 -0.21099792
000260 e8 7f 47 be e7 9f 6e be 4b e2 81 bd b5 5a 6c be
       -0.19482386 -0.23303185 -0.0634199 -0.23081477
000270 12 a0 a9 bd 46 88 dc bd 6c 87 d9 bd 34 d3 4f be
       -0.08282484 -0.107681796 -0.10621533 -0.20295411
000280 06 2b 2c 3d e4 61 e9 bb 6d d1 b8 bc 2f 86 9f bd
       0.042033218 -0.007122265 -0.0225608 -0.07789265
000290 33 cd fc 3c b9 c8 9f bc 91 20 9e bd 2a 5b 4a 3d
       0.030859565 -0.019504892 -0.07721055 0.049403347
0002a0 b9 28 c5 bc 57 c2 c2 bd 44 af 91 bd 3a 9c 9e bc
       -0.02406727 -0.09509724 -0.071135074 -0.019361604
0002b0 cb f1 a7 3c 5a 38 1b bd 06 ed b2 bd 7e e7 5a bd
       0.020501038 -0.037895538 -0.08736615 -0.053443424
0002c0 97 17 d3 bd 50 73 f5 3b cd 97 f6 3c 88 5c 04 be
       -0.10307234 0.007490553 0.030101681 -0.12925923
0002d0 b6 32 25 3c e8 82 0d 3d 14 c6 9a bc 4f ee 00 bd
       0.010082891 0.03454867 -0.01889328 -0.03147727
0002e0 e7 77 29 3e a3 ca 29 3e 39 90 ab 3c 73 20 1d bd
       0.16549645 0.16581206 0.020942794 -0.038361024
0002f0 1e a8 58 bd c2 93 99 ba 0a 3b 84 bc 20 34 1a bb
       -0.052894704 -0.0011717009 -0.016141433 -0.0023529604
000300 dd fa 60 3d 50 3d c8 3d 91 82 87 bc 96 b1 84 bc
       0.054926742 0.097773194 -0.016541751 -0.01619796
000310 19 90 9d bc 1c d2 21 bc f3 f0 81 bb 12 2f 3c 3c
       -0.01923375 -0.009876754 -0.003965491 0.011485832
000320 32 cf 03 be fd ec 16 be 6a 3f dd bc b2 08 0d 3d
       -0.12872007 -0.14738841 -0.027007777 0.03443212
000330 3b cd 2d be 75 de 5f be 21 ce 16 be 78 e1 49 be
       -0.1697282 -0.21862204 -0.1472707 -0.19714916
000340 b8 ba dd bd 18 dc 66 bd a0 bb 7b bd 69 30 92 bd
       -0.108266294 -0.05636224 -0.06145823 -0.0713814
000350 17 ef 42 be 23 41 1c be fd f7 dc bd a9 c0 5b bc
       -0.19036518 -0.15259223 -0.107894875 -0.013412633
000360 26 f4 96 bd 24 f9 db bd 69 69 4f bd 81 61 fb bd
       -0.07370786 -0.10740879 -0.050637636 -0.12274457
000370 9b d0 07 be 63 43 a2 3c 36 4c b5 bd 48 27 91 bc
       -0.1326317 0.019807523 -0.08852427 -0.017718926
000380 6d 1d ee bd 1d 75 fc 3c bf 0e 81 bb b2 e8 3d bc
       -0.11626706 0.030817563 -0.0039385254 -0.011591123
000390 75 0a 10 be f3 5c 1a be 3a c4 03 be ce b1 9f 3c
       -0.14066489 -0.1507452 -0.12867823 0.019493964
0003a0 d1 b7 86 bc 36 ed df 3c 64 1b d6 bc 48 9a 0a bd
       -0.016445072 0.02733479 -0.026136108 -0.03383854
0003b0 67 98 9e bd d1 57 02 be af e3 20 be 4f 46 31 be
       -0.07743912 -0.12728812 -0.15711854 -0.17311977
0003c0 af 53 8c bd 8e d8 40 bd d4 76 7d bc eb 5a 50 bd
       -0.06851899 -0.047081523 -0.015470225 -0.050867956
0003d0 13 05 4f bc 64 99 70 bd 78 3f dd bd 68 cc df 3c
       -0.012635487 -0.058740035 -0.10803121 0.027319148
0003e0 b1 24 e2 bd 29 a7 bc bc 7b bf 95 bd c7 16 c9 bd
       -0.110421546 -0.023028927 -0.073119126 -0.098187976
0003f0 02 6f 87 bd f0 6b aa bd 6e 69 c0 bd 04 07 17 be
       -0.0661297 -0.08321369 -0.09395109 -0.1474877

lstm.weight_hh_l0 f4 [512, 128]
000000 7a f6 44 bc 97 c1 29 bc cc 4c 51 3c 04 16 fb bc
       -0.012021655 -0.010361097 0.012774657 -0.030650146
000010 f5 be 6f bc 27 16 d9 bd f2 a8 bd 3d ed 52 e5 bd
       -0.01463293 -0.10599928 0.092607394 -0.111974575
000020 41 f4 00 3d ac ee a9 bd e9 41 95 bd 0d 4b 5f bd
       0.03148294 -0.08297476 -0.07287962 -0.054514933
000030 ef a4 3f 3d 29 88 05 bd e5 d9 d5 3d 8b 68 aa bc
       0.046788152 -0.032600556 0.10441951 -0.020801803
000040 03 cb 75 3d 0c 1b c9 bb 4c 63 8e bd 16 de 65 3d
       0.06000806 -0.0061372574 -0.06952533 0.05612
000050 e6 54 69 bd 5d 2c ac bd 86 19 48 3d dc 58 ac 3c
       -0.05696573 -0.08406899 0.048852466 0.021038465
000060 53 1f a1 bc 28 2d bb 3d 64 41 82 bd a3 52 9a bc
       -0.019668257 0.09139472 -0.063601285 -0.018838232
000070 a0 fa 3a 3d 59 04 21 3c 9b 32 f3 3b b2 38 3d bd
       0.04564917 0.009827697 0.007421804 -0.046196647
000080 08 7e 8b bc 60 92 a5 3d d5 f2 b4 3b 82 30 7b 3c
       -0.01702787 0.080845594 0.005522112 0.015331389
000090 19 52 a5 3d b3 05 d9 3d ec a9 c3 3c 27 f5 96 3d
       0.080722995 0.1059679 0.023884736 0.07370978
0000a0 69 49 68 bb 6d 2a e6 3b d1 85 6b bd 7c 8b a9 bd
       -0.0035444146 0.0070241005 -0.057500664 -0.08278558
0000b0 9f 91 ff 3d 3a 7c 76 bd 5f 75 85 bd 18 13 28 bd
       0.12478947 -0.060177065 -0.065165274 -0.041033834
0000c0 18 36 76 bd 70 bb 61 bd 0c 5d 00 bd 9d e9 96 3d
       -0.06011018 -0.055110395 -0.031338736 0.07368777
0000d0 07 9f cc bd 41 2b 43 bd 61 e1 16 bd e5 6f ba bd
       -0.099912696 -0.047648672 -0.03683603 -0.091033734
0000e0 8a a2 78 bb 9b fe ba 3b 3b b6 08 3d 82 4f 92 3d
       -0.0037938678 0.005706621 0.033376914 0.07144071
0000f0 7f db ff bc b1 4e 54 bd 36 1a 0e 3d 48 66 91 3d
       -0.031232594 -0.05183286 0.034692965 0.07099587
000100 f7 ff 69 3d c0 ed b8 bc a6 b5 07 3d fd 1f b3 bd
       0.057128873 -0.022574306 0.033132218 -0.08746336
000110 df 55 97 bd 2d 50 57 bd ab 49 ba bd 0d 1b 13 bd
       -0.073894255 -0.052566696 -0.09096082 -0.03591447
000120 35 b1 ad bd 2f 3f 7b 3d aa f7 30 3c dd 9c 0c bd
       -0.08481065 0.061339553 0.010801235 -0.034329284
000130 a0 bd 0e 3c ae d4 60 3d b3 97 a6 3c 29 97 28 bd
       0.008712202 0.054890327 0.020336008 -0.041159783
000140 df bc 63 3d a1 8c 6f 3d 70 c3 49 bd 4a 04 12 3d
       0.055600043 0.058483724 -0.04925865 0.03564862
000150 f5 07 f5 3c 82 43 2d bd cf 96 00 3e 08 b3 3e 3c
       0.02991102 -0.04230071 0.12557529 0.011639364
000160 90 46 c5 3d 7a dc 11 bc 09 25 b4 bd 1f d5 a3 3d
       0.09632599 -0.008902663 -0.087961264 0.07999634
000170 1b 9c 3f 3b e0 7c 9b 3d 73 a9 5d bc 42 27 29 3d
       0.0029237333 0.075921774 -0.013529169 0.041297205
000180 d8 68 9c bd c8 99 c4 3b ca cc 86 3d d0 8d 38 bd
       -0.07637185 0.0059997775 0.06582029 -0.045057118
000190 4f 8c af 3d 3e a7 dd 3c 2a 09 17 bd df 6e cb 3d
       0.085716836 0.027057286 -0.036873974 0.09933256
0001a0 09 ea 30 bc a0 fa a3 bd 53 93 3e 3d 7c 23 09 bd
       -0.010797986 -0.08006787 0.046527218 -0.033481106
0001b0 d4 14 b5 bd 7d 99 8c 3d f5 77 a5 bd f4 94 dd bc
       -0.08841863 0.06865213 -0.080795206 -0.027048565
0001c0 d6 98 40 bb a3 4b db ba 26 12 96 bd 89 41 9e bd
       -0.0029387972 -0.0016730916 -0.0732768 -0.077273436
0001d0 b5 03 7e 3d f6 09 69 bd 81 45 b6 3d 64 e8 19 3c
       0.062015254 -0.056894265 0.088999756 0.009393785
0001e0 62 d3 c0 bb 1c 2e 9a bd 51 b0 d7 bc 7d 11 ac 3d
       -0.005884574 -0.07528326 -0.026329191 0.08401773
0001f0 1b 73 3b bd fd f3 0b be 61 2b 96 bc e1 f1 4d 3d
       -0.04576407 -0.13667293 -0.018331232 0.0502795
000200 54 6b 9f bc b7 06 90 3d a8 c5 3f 3d e2 29 da 3d
       -0.019460358 0.07032531 0.04681936 0.1065252
000210 4f 63 18 bd 7e 20 bd bd e4 fc 88 bc 41 d0 3b bd
       -0.037204083 -0.09234713 -0.01672215 -0.045852903
000220 c3 7f 8a bd 37 d0 58 3c 48 7c a3 bc 3f 17 b4 3d
       -0.0676265 0.013233236 -0.019956723 0.08793496
000230 9b 42 dd bd a6 7f 05 be 8c 0e e4 3c f8 7b 55 3d
       -0.108037196 -0.13036975 0.027838968 0.05212018
000240 0f a7 c9 3d 46 f1 b7 bc 8f 36 7a 3d 38 57 95 bd
       0.09846317 -0.022453915 0.061087187 -0.07292026
000250 b9 1e 0a bd b7 7e 1a bd 26 2c 80 bd 01 5e 68 3c
       -0.033720706 -0.0377185 -0.06258421 0.0141825685
000260 0d 8c c9 bd 89 28 d3 bc 1c 6f ef bb a1 95 ef bc
       -0.09841166 -0.025776165 -0.0073069464 -0.029246153
000270 e6 16 54 bc b4 2a 97 bd 59 68 3d bd f1 9a d5 bd
       -0.012944913 -0.07381192 -0.04624209 -0.10429943
000280 6d e9 79 3d 45 c6 d2 3c 46 f0 54 3c 88 c2 b8 bd
       0.061013628 0.025729308 0.012996739 -0.09021479
000290 fd ff 04 3d dd 4a 07 bd 6a 82 2d 3a 1a 5c f2 3c
       0.032470692 -0.03303038 0.00066188595 0.029584933
0002a0 cc 57 e7 bd 56 da 89 3d f5 eb 1a 3d 97 31 4a bd
       -0.11296043 0.067310974 0.037822682 -0.0493637
0002b0 03 47 4b 3c 67 b2 00 3e cb bd 8d bd 43 2a c5 3c
       0.012407067 0.12568055 -0.06920966 0.024068004
0002c0 8c e5 61 3d fc 7b b0 3c 40 cb 40 b9 04 ed bd bd
       0.055150554 0.021543495 -0.00018386263 -0.09273723
0002d0 19 5f 8c bc 7d 8e d7 3d fb 23 39 bd cf 5b 25 bd
       -0.01713519 0.10525224 -0.04520033 -0.04037076
0002e0 3d 1a b2 bb 88 82 28 bd 41 99 d3 3c d5 6a 6d 3d
       -0.0054352568 -0.04114011 0.025829913 0.05796321
0002f0 e1 27 3e 3d a2 ae 99 bd ce 67 6e 3d 8c 44 e8 bd
       0.04642475 -0.07504012 0.058204465 -0.11341199
000300 aa 3d 24 3d b2 8b ac bd 9c a9 d6 bd d8 94 fc bb
       0.04009787 -0.08425082 -0.10481569 -0.0077081732
000310 c9 76 28 bd 48 89 4c 3d eb cc 3d 3d 58 17 f6 3d
       -0.041128907 0.04993561 0.046338003 0.12016171
000320 a7 5d c3 3c d4 7c 69 bd 05 06 01 bd 77 e1 9b bb
       0.023848368 -0.05700381 -0.03149988 -0.004757102
000330 95 99 79 bd 13 9e c2 3d 2b a9 47 3d 20 ac 31 3c
       -0.060937483 0.095028065 0.048745316 0.01084426
000340 5c 1b 60 bd 26 c1 29 bc 63 04 1d 3d fe 43 7e 3d
       -0.054713592 -0.010360992 0.03833426 0.06207656
000350 3e 74 b5 bb 9e 77 b5 3d 71 69 97 ba 64 0c 3e bd
       -0.005537539 0.08860706 -0.001155181 -0.046398535
000360 78 67 42 3d 4b c2 c1 bc e5 d9 d4 bd b2 a3 98 3c
       0.047461957 -0.023652216 -0.103931226 0.018632744
000370 02 87 f6 bc 29 2c b4 3d 7e 2f 1f bd 07 2b a4 3d
       -0.030093674 0.087974854 -0.03886365 0.08016019
000380 17 f3 bc 3b b8 47 63 bb 81 c6 95 bd 0a d6 32 3c
       0.0057662833 -0.00346802 -0.07313252 0.010915289
000390 64 39 1e bd 14 ba 2c 3d 51 ef 60 3d 8e ea f1 bc
       -0.03862895 0.042169645 0.05491573 -0.02953079
0003a0 8f f6 1e bd a0 78 e4 3c f0 ad 62 bd 4e 41 5a bd
       -0.038809355 0.02788955 -0.05534166 -0.053284936
0003b0 cd 8a a9 3a 22 bd a9 bd 02 8c 94 bd e4 58 8e bd
       0.0012935043 -0.08288027 -0.07253267 -0.06950548
0003c0 73 5e ef 3b 45 a0 db 3c 6e b1 8f 3c e2 5a f1 3c
       0.0073049604 0.02680982 0.01754066 0.029462282
0003d0 53 fa 06 bd 40 7a 5c bd f8 aa 8f 3d 34 1a 44 3d
       -0.03295357 -0.053827524 0.070150316 0.04787655
0003e0 02 5a 44 3d 58 04 7f bd a1 ed 9e bd cf 7b 21 bc
       0.0479374 -0.062260002 -0.07760168 -0.009856178
0003f0 a9 5e b0 bd 50 c8 fc bb 85 54 a0 bc c8 f2 0d 3e
       -0.08611805 -0.007714309 -0.019571552 0.13862145

lstm.bias_ih_l0 f4 [512]
000000 0c 73 04 bd 12 a5 16 be d3 b6 ea 3d d0 54 8f bd
       -0.03233628 -0.14711407 0.11460652 -0.069985986
000010 d0 fa da bd 8a ac ae 3c 13 8d 84 3c 4d f1 3f bb
       -0.1069237 0.021322507 0.01618055 -0.0029288114
000020 08 32 07 3d a5 eb 23 3c e5 9e b3 bd 8f f5 2f bd
       0.033006698 0.0100049125 -0.08770541 -0.042958792
000030 30 b8 d2 bd 34 a6 78 3e 59 d8 d1 3d 37 c2 8e 3d
       -0.10289037 0.24282151 0.10246343 0.06970637
000040 01 b3 f5 bb d5 84 5b bd c4 c3 ab 3e 15 c4 90 3d
       -0.0074981456 -0.053593475 0.33547795 0.0706865
000050 cc 31 37 3d 69 1c af bd 1d 0d bd bc 0d 54 d8 3c
       0.044725224 -0.08550341 -0.023077542 0.026407266
000060 6a 72 ea bb 5c 14 86 bd a3 e3 14 3c 0a 7e b2 3c
       -0.0071547525 -0.06546852 0.009087476 0.021788616
000070 e5 29 5e 3d e0 87 50 be 71 91 fb bd a0 af 98 3d
       0.054239172 -0.20364332 -0.122836 0.07455373
000080 2e c1 c9 bd e7 71 38 3d 77 20 18 be d7 d4 32 bc
       -0.09851299 0.0450305 -0.14856134 -0.010915003
000090 96 de ba bd 62 53 04 be 43 53 8b bd 1d 53 e1 bd
       -0.09124486 -0.12922433 -0.0680299 -0.11002181
0000a0 dd 41 2d 3c 03 19 59 bd d3 f9 95 bd 01 82 17 3c
       0.010574785 -0.05300237 -0.07323041 0.009247304
0000b0 a6 cb 00 3d cb e4 c8 3c 5f db b0 bc 06 76 fc 3c
       0.031444214 0.02452316 -0.02158898 0.030817997
0000c0 da 1d bf 3c 42 99 8a bd 5e c2 13 3d 40 62 33 3f
       0.023329664 -0.06767513 0.036074035 0.7007179
0000d0 5d e2 48 3d 07 23 4e ba bf 12 76 3d a3 52 86 bd
       0.049044 -0.0007863496 0.06007647 -0.065587305
0000e0 57 fd 4f bd e8 58 98 bd cf bb 0e 3c 4a 67 de bd
       -0.050778713 -0.074388325 0.008711769 -0.108595446
0000f0 55 05 a6 bd f9 0e 51 bd 24 64 91 bc 77 df 69 3c
       -0.08106486 -0.05103967 -0.017747946 0.01427447
000100 3a 33 1e be 16 7a b2 3d 44 ad 3e 3c 5c 32 70 bd
       -0.15449229 0.08714692 0.011637989 -0.058641776
000110 b2 6f a6 3b c1 17 04 bd 00 8a 7f 3c 99 f1 bb bc
       0.005079233 -0.032249216 0.015596867 -0.022942351
000120 ff 86 cf bc f6 11 c7 bc 88 8e 9d bd 0d e2 96 bc
       -0.025332926 -0.024300557 -0.07693201 -0.018418336
000130 a1 51 4d bd e7 aa 93 bd a4 fa f3 bd e6 63 d0 bd
       -0.050126676 -0.072103314 -0.1191304 -0.10175304
000140 e8 58 b4 bd 59 29 bd bd ff bf 07 bd 9e de 61 3e
       -0.0880602 -0.09236402 -0.033142086 0.22057578
000150 12 ee 27 bc b7 67 b7 bd 3a e0 53 3d ca da ab 3c
       -0.0102496315 -0.08955329 0.05172751 0.02097835
000160 95 03 28 bd 28 6b 43 3d 6e a3 e8 3c 3d 09 f0 bc
       -0.04101904 0.047709614 0.028398242 -0.02930128
000170 c5 de 64 bd 72 00 e9 bb 96 82 88 bd 54 ef 34 3d
       -0.055876512 -0.007110649 -0.06665532 0.044173554
000180 95 b7 7a bd a1 9e 37 bd 7f 10 a3 3c 19 07 08 3e
       -0.061210234 -0.044829015 0.019905327 0.13283958
000190 ac 19 40 3d d0 b2 21 3c 8d a5 e7 bd 49 c4 fb 3d
       0.046899483 0.009869292 -0.11310873 0.12293298
0001a0 10 67 b6 bd 7b 6a d6 bd 15 8b 37 bd db 0e 45 bc
       -0.08906376 -0.10469528 -0.044810373 -0.012027468
0001b0 61 72 80 bc 55 3a b0 3b ac b4 bd 3c 7c 09 8d bd
       -0.01567954 0.0053780475 0.02315744 -0.068865746
0001c0 72 fd 13 bd 82 6a bb bd d4 9a 9f bd c9 4d 1f be
       -0.036130376 -0.09151174 -0.07793203 -0.15557016
0001d0 26 62 bb bd 8f 36 82 bc 6e 4e 76 3d 37 54 88 bd
       -0.0914958 -0.015895156 0.06013339 -0.06656688
0001e0 da 77 83 bc f0 31 b6 3c 66 d2 1c 3d 6f 3a 79 bd
       -0.01604836 0.022240609 0.03828659 -0.060846742
0001f0 97 16 d1 3d 21 c5 55 3e 1d 86 e9 3c bf 1f 28 3f
       0.10209387 0.2087598 0.028506333 0.6567344
000200 4f 5b da bd 61 02 86 bd f2 e1 15 3d 94 b6 f6 bd
       -0.10661947 -0.065434225 0.03659243 -0.12046543
000210 bd 42 ef bc dc 8f a8 bb e0 8c ce bd a6 af 68 bd
       -0.029206628 -0.0051441025 -0.100854635 -0.056808136
000220 1c 80 48 bd a5 ae 54 bd dc aa 08 be e2 a3 8c 3c
       -0.0489503 -0.051924367 -0.13346428 0.01716799
000230 db f2 ab bd 8e f2 e3 bd ec 52 9c bd 05 07 f7 bc
       -0.083959304 -0.11130248 -0.076330036 -0.030154714
000240 00 dd 76 bc 2c 79 ed bd 01 08 b7 bd 3b 8f a5 bd
       -0.015067339 -0.11595377 -0.089370735 -0.0808396
000250 4d 05 f1 bd 57 5b 08 bd 53 75 64 3d f8 b9 e4 bd
       -0.11768589 -0.033290233 0.05577595 -0.11168283
000260 86 a9 e9 bd f4 97 45 3d a4 19 38 bb a0 f7 11 be
       -0.11409287 0.048240617 -0.0028091455 -0.14254618
000270 28 da b8 bd 89 96 92 bd 2c 38 19 be 16 ec f2 bc
       -0.09025985 -0.071576186 -0.14962834 -0.02965359
000280 df 9a a4 bd dc ad 8a bd 03 3a 0c bd 41 b6 f2 bd
       -0.08037352 -0.06771442 -0.03423501 -0.118511684
000290 18 a2 f7 bd f8 aa 69 3c 0c 0e 8f bd fa ce 86 3c
       -0.12091464 0.0142619535 -0.06985101 0.016456116
0002a0 87 bf 13 be c4 c9 b2 3c e1 9d df bd fa 11 7f bd
       -0.1442853 0.021824725 -0.10918785 -0.062273003
0002b0 ae 35 5a bd 37 40 b8 bc 13 0f d3 bd bf f8 e0 bd
       -0.05327385 -0.022491558 -0.103056096 -0.109849446
0002c0 b1 7d 2c 3d 35 d7 c6 3c 7c 49 02 3d 4c e3 a3 bd
       0.042112056 0.02427254 0.03180836 -0.08002338
0002d0 23 4e 3c bd 99 06 34 3d ed c6 02 bc 83 d6 a2 bc
       -0.045972954 0.043951605 -0.007981998 -0.019877678
0002e0 a3 49 c7 bd 30 8e 9a bd f6 69 1d bd ff 86 92 bd
       -0.09730842 -0.07546651 -0.03843113 -0.07154655
0002f0 18 23 07 be 70 ba 1f be 43 ae 02 3d 87 ef 38 3d
       -0.13196981 -0.15598464 0.03190447 0.045150306
000300 a9 e6 cc bd bf 18 fb bc 01 ea ab bc 04 a3 3b 3d
       -0.100049324 -0.030651448 -0.020985605 0.04580976
000310 87 9f 0d bd 2b 46 80 bd 2d 94 af 3d 61 cd 0a be
       -0.034575965 -0.062633835 0.08573184 -0.13554908
000320 ec 09 6a 3d c2 c0 5a bd a2 d9 e2 bd 73 a3 1f bd
       0.05713837 -0.053406484 -0.110766664 -0.038974237
000330 c7 55 92 3d 40 d8 54 bd 43 b5 22 be ba d9 0c bd
       0.07145267 -0.051964045 -0.15889458 -0.034387328
000340 6a 9c af bc 7c 8e 55 3b 20 cc 9e 3c e1 ef ee bd
       -0.021436889 0.0032586148 0.019384444 -0.11666847
000350 5e 05 a0 bd 18 43 c0 bd f6 b5 50 3b 41 56 0c bd
       -0.07813524 -0.09387797 0.0031846738 -0.034261946
000360 48 88 a9 3d 23 3f ec bc 28 f9 9f 3d 22 70 fc bd
       0.08277947 -0.0288387 0.07811195 -0.12326075
000370 76 85 95 bc 03 04 dc 3c 6b 2a 10 be 68 aa 5a 3c
       -0.018252116 0.026857382 -0.14078681 0.013346292
000380 a5 ab d5 bd 5a e2 1f 3d d4 2d 16 bd db 7c 8f bd
       -0.10433129 0.039034225 -0.0366648 -0.07006236
000390 b1 7b fb bd 6d d8 db bd 7a 12 33 be ae 40 d6 bc
       -0.12279452 -0.10734639 -0.17487517 -0.026153889
0003a0 9c 5b fe bc 1e 36 97 3c c8 dd 4e bd c6 30 ce bd
       -0.031049542 0.018458422 -0.050504476 -0.100678965
0003b0 e7 b5 b8 3c 6a 6e 1f be ed c5 aa bb 61 1e fb bd
       0.022547675 -0.15569463 -0.005211583 -0.12261654
0003c0 f8 0a 82 3d 1b 25 6a bc dd 8f 04 bc bb b9 8a bd
       0.063497484 -0.014291073 -0.00809094 -0.067737065
0003d0 b2 46 22 3d 91 7b ba ba 5a ef f1 3b a7 3a 85 3b
       0.0396182 -0.00142275 0.0073832693 0.00406583
0003e0 e0 61 f3 3c 6e 47 0d 3d ff 67 b7 bc da d0 86 bb
       0.029709756 0.03449195 -0.022388456 -0.0041142525
0003f0 95 3a 4e 3d 55 dd df bc e9 8f c3 bd b4 e0 c8 bd
       0.050348837 -0.027327219 -0.09548933 -0.09808484

lstm.bias_hh_l0 f4 [512]
000000 1a 4c 17 bd 14 66 8a bd d3 31 04 3e 62 78 b4 3c
       -0.03693781 -0.06757751 0.12909631 0.02203006
000010 6b 5c 99 bd 03 99 c8 3b a7 a2 db 3d 1e 50 82 bd
       -0.074883305 0.006121756 0.10724383 -0.063629374
000020 1a 96 29 3c 07 74 e6 3c df 3f 87 bc 89 f0 af bd
       0.010350728 0.028131498 -0.016509948 -0.085908
000030 b8 2e c8 bd 15 d2 60 3e 2c be 13 bd 12 76 3f bd
       -0.09774536 0.2195514 -0.036070034 -0.04674346
000040 87 79 c3 bd 47 ca 55 3c 7f bb df 3e 2a 45 a9 bc
       -0.09544664 0.013048715 0.43697736 -0.020662863
000050 1a bf 98 3d 60 f7 19 bd 92 59 b4 3c 14 32 1c bc
       0.07458325 -0.03758943 0.022015367 -0.009533424
000060 1c ea bc bd d1 4a 2d 3d 87 09 db 3d 2b 65 48 3a
       -0.0922434 0.04230768 0.106951766 0.000764447
000070 25 72 91 3d 30 03 4f be 73 ab 39 3c 6c 2a 31 bd
       0.071018495 -0.2021606 0.011332381 -0.043253347
000080 34 ff 98 bd 8f d7 77 bd 7f bb e4 bc 8c ef 82 bd
       -0.07470551 -0.060508307 -0.027921436 -0.06393346
000090 08 41 af bd 70 9b 9b bd df 07 16 be c4 62 9f bd
       -0.085573256 -0.07598007 -0.1465144 -0.0778251
0000a0 89 c5 3a 3d 71 a0 28 bd 2b f6 57 bc e0 30 85 3c
       0.04559854 -0.041168634 -0.01318125 0.016258657
0000b0 90 73 97 bd 51 d6 a6 3c 5a 9c 53 3d 5a ef 45 bd
       -0.07395089 0.020365866 0.05166278 -0.048323967
0000c0 cf c7 03 3d da d5 94 bd 30 87 8d bd 0d 9d 40 3f
       0.032172974 -0.072673514 -0.069105506 0.7523964
0000d0 aa 4c b5 3d ca 07 97 bd 61 1b 7e 3d a7 a1 0a be
       0.08852513 -0.073745325 0.06203783 -0.13538228
0000e0 59 f9 11 be 7f fc 0d 3c 6f 0a 03 be d9 4c 2d 3b
       -0.14255275 0.008666157 -0.12796949 0.002644351
0000f0 80 3e 6f 3c 4f ba 42 3d 08 23 23 38 c8 ca 8c 3c
       0.0146023035 0.04754096 3.8894854e-05 0.017186537
000100 2a a1 e3 bd 77 06 b3 3c 34 bc 10 bd b4 64 df 3c
       -0.11114724 0.021853669 -0.035335734 0.027269699
000110 26 c0 08 bd 94 5e 80 bd 99 fb c7 3d 98 15 27 bd
       -0.033386372 -0.06268039 0.09764785 -0.040792078
000120 fa ad a2 bd 6f 5f 35 bc 91 5b a4 bc 4f 3a a4 3d
       -0.0794334 -0.011070116 -0.020063194 0.08018934
000130 f3 4f 20 3d 9c 8d f7 bd c5 28 9a bd 6b ae 1f bd
       0.039138746 -0.12087557 -0.075273074 -0.038984697
000140 89 e8 00 bd 6a 0c 6a bd c6 bf a4 bd 08 cb 80 3e
       -0.031471763 -0.057140745 -0.080443904 0.251549
000150 e0 e7 2d bc 5c ec a1 bd 87 67 c1 bb 73 65 8d bc
       -0.010614365 -0.0790641 -0.005902234 -0.017260289
000160 2d 8b 77 3d a4 80 d1 bb cf a8 b7 3d 3f c5 9f bd
       0.060435463 -0.006393509 0.089677446 -0.078012936
000170 b2 e4 7b 3c 90 b9 88 3d e5 c5 8f bd a1 23 92 bd
       0.015374349 0.06676018 -0.07020167 -0.07135702
000180 23 66 95 bd 24 cd 09 3c 89 a6 d6 bc 60 c9 4c 3d
       -0.07294872 0.008410726 -0.026202457 0.049996734
000190 51 6e f3 3c 72 84 f5 bd 5b 02 86 bd 79 8b 3c bd
       0.029715689 -0.119881526 -0.06543418 -0.04603145
0001a0 91 9e aa bd ec df fc bd a1 41 f4 bc 5b d9 08 be
       -0.083310254 -0.12347397 -0.02981645 -0.13364165
0001b0 0b b0 80 3d cf e8 f8 bd 07 31 36 bd b9 b1 8a bd
       0.062835775 -0.1215378 -0.04448035 -0.06772179
0001c0 e8 bb c9 3d 80 47 b9 bd 91 55 80 bd e5 ca 35 bd
       0.098502934 -0.09046841 -0.062663205 -0.04438295
0001d0 21 47 e8 bd e1 28 c2 bc 1c 45 82 3d 90 99 31 3d
       -0.11341692 -0.023701133 0.06360838 0.04335934
0001e0 d2 40 01 be 94 4f 1b bd fd 3f f3 3b 81 00 4a bb
       -0.12622383 -0.03791769 0.0074233995 -0.0030823054
0001f0 55 18 6d bc 5f da 27 3e 21 f9 88 3d 68 1a 54 3f
       -0.014471133 0.16391896 0.066881426 0.8285279
000200 58 c1 28 be b2 f5 54 bd f3 a3 a1 bd be ee d3 bd
       -0.16480005 -0.051992126 -0.07892599 -0.10348271
000210 9e 79 1f be 53 48 af bd 56 a7 ac 3c 6c 78 25 be
       -0.15573737 -0.085587166 0.021075886 -0.16159219
000220 81 db c5 bb 19 07 81 3c aa 9a 10 be 8d 1f fb bc
       -0.00603813 0.015750455 -0.141215 -0.030654693
000230 38 93 d5 bd 4c ca 9e bd 0a b2 cd bd 4d a2 62 bd
       -0.104284704 -0.07753429 -0.10043724 -0.055330563
000240 b5 c9 6f bc 32 fd 99 bc 8e 1a 4f be b4 0b a8 bd
       -0.014635493 -0.01879749 -0.20224974 -0.08205357
000250 46 45 c7 bd c7 39 06 be 07 e3 3c 3d 43 79 94 bc
       -0.0973001 -0.13107978 0.046114948 -0.018124228
000260 e8 30 4f bd 25 13 9a 3d aa 4d d5 bd 78 e5 1e bd
       -0.05058375 0.07523183 -0.10415204 -0.038793057
000270 08 5f 59 bd 21 1a 1f bd 13 7c 87 bc c8 f1 bd bc
       -0.053069144 -0.038843278 -0.016538655 -0.02318658
000280 9b 7a fe bc 1f 29 7b 3c 06 fe 09 bc 0c f0 9d bd
       -0.031064322 0.015329628 -0.00842238 -0.07711801
000290 eb 99 2a bb 66 27 ae bd 31 3a f5 bd fd 38 02 bd
       -0.0026031684 -0.085036084 -0.1197399 -0.03179263
0002a0 5b a9 cc bd af c5 1d 3d 4d 0e 0d be 7e 6b 88 bd
       -0.099932395 0.038518604 -0.13774987 -0.066611275
0002b0 00 a4 5f bd 15 b5 ee bd cf f9 bf 3c d3 58 61 3c
       -0.054599762 -0.116556324 0.023434548 0.0137540875
0002c0 7f ab b4 bd 2c 14 09 3d 90 1b e6 bd 91 98 3c be
       -0.08821773 0.033466503 -0.11235726 -0.18417574
0002d0 7e 85 5d ba be d4 a5 3b 2c ab b8 bd 1d 24 bc 3c
       -0.0008450373 0.0050607612 -0.090170234 0.022966439
0002e0 ee 9a 35 be ab 60 fc bd bb dd aa bd 7b d7 04 bd
       -0.17734882 -0.123231255 -0.08343073 -0.03243206
0002f0 11 d4 d1 bd 80 9d ea bd 6a c9 de bc 53 83 7b 3d
       -0.102455266 -0.11455822 -0.027195651 0.061404537
000300 17 f3 1d bd c7 33 b4 bd 3b 49 18 bc ac b3 ca 3c
       -0.038561907 -0.08798938 -0.009294803 0.024743877
000310 e0 f9 5e 3d 1d 7f 17 be 36 0a 87 bd 51 dd ca bd
       0.054437518 -0.14794584 -0.065937445 -0.09905494
000320 7c 51 1c 3d 2e 9c 06 be d4 18 43 bd 4c 24 c6 bc
       0.038163647 -0.13145515 -0.0476311 -0.02418723
000330 0e f3 98 3d f1 17 31 be 68 49 21 be c3 fd 00 be
       0.07468234 -0.17294289 -0.15750659 -0.12596802
000340 19 6f 42 bd 75 c7 bb bd 88 54 98 bd 09 fc 69 bd
       -0.047469232 -0.09168903 -0.07437998 -0.057125125
000350 fa 32 c7 bd 2b d0 1e 3d da 6a 29 bd 91 a3 a5 bd
       -0.0972652 0.038772743 -0.041361667 -0.080878384
000360 7c c5 0f bb 38 6d a7 bd 49 8b fe bc 0f d6 cf 3b
       -0.0021937778 -0.08175129 -0.031072276 0.0063426564
000370 a0 3f 20 bd 8f 69 05 bd f6 ef 3f bd 0b 38 b6 3c
       -0.039123178 -0.03257137 -0.046859704 0.02224352
000380 e1 92 2f bd 06 8c 7d bd 37 6c 47 be 94 39 07 be
       -0.042864684 -0.061901115 -0.19474874 -0.13205558
000390 55 9d 0c 3d 83 2c 11 be 0e 71 0e be fc b7 62 bd
       0.03432973 -0.14177136 -0.13910314 -0.055351242
0003a0 b4 5e db bd 47 bb 8c bb 51 de 94 bd bc e7 1a be
       -0.107114226 -0.004294786 -0.07268966 -0.15127462
0003b0 cb 64 d0 bd 41 3b 47 be 6a ac df bd 2d 7e f0 bd
       -0.10175475 -0.19456197 -0.10921557 -0.11742816
0003c0 55 e0 e5 bc a9 93 b5 bd c5 4e d7 bd 60 6a e5 bd
       -0.028061071 -0.088660546 -0.10513071 -0.1120193
0003d0 0e c1 14 3b 8e 17 ec bd a6 08 aa ba 6a 03 d5 bd
       0.0022698077 -0.1152793 -0.0012972548 -0.10401042
0003e0 bd 20 56 3a 6a 52 97 bd ed 02 1f be c1 3f 83 bd
       0.00081683305 -0.07388766 -0.1552846 -0.064086445
0003f0 b5 ea 1d 3d 16 0d 3f bc 7e 89 9c bd 46 04 34 3b
       0.038553912 -0.011660835 -0.07643412 0.0027468367

lstm.weight_ih_l1 f4 [512, 128]
000000 0f 5c e9 bb 72 c2 c3 3c 7f 70 45 bd da 0b f3 bb
       -0.00712157 0.02389643 -0.048202988 -0.0074171843
000010 8c 85 06 be d4 69 c7 3d 17 d4 25 bd 01 28 95 3d
       -0.13136882 0.09736982 -0.040485468 0.07283021
000020 93 d9 50 3c 14 a4 cb 3c 85 e9 f8 3c 08 5b 56 bc
       0.012747186 0.024858512 0.030384788 -0.013083227
000030 2d 9b 8e bd ea 83 4b bc 33 0b 2d 3d e2 ef 7f 3d
       -0.06963191 -0.0124215875 0.04224701 0.06248463
000040 78 45 f6 bb e2 d8 6d 3d c4 ab 1a be e6 77 30 3c
       -0.0075156055 0.058068164 -0.15104586 0.0107707735
000050 20 8f f4 3c 41 7a 16 bd fc ba f0 bc de c7 63 3d
       0.029853404 -0.036737684 -0.029386036 0.05561053
000060 d7 b2 60 bd 90 5e d5 bd c3 c5 a1 3d f1 bd d1 3d
       -0.054858055 -0.10418427 0.07899048 0.102413066
000070 72 fc a0 bb b0 2a eb bb 1c b2 bf bd ea f8 a0 3d
       -0.0049129063 -0.0071767196 -0.093601435 0.078599766
000080 e1 90 c4 bd 64 5e 80 bc 1f ca 88 bd 25 18 ad bb
       -0.09597946 -0.015670009 -0.066791765 -0.0052824193
000090 2a df 04 bb fc 87 0b be 7e 47 b4 3d 5c 1f 7f bd
       -0.0020274618 -0.13626093 0.088026986 -0.062285766
0000a0 c3 c3 4c bc 7f 6f ed bd 48 6a a7 bd a2 4e 17 3c
       -0.012497845 -0.11593532 -0.081745684 0.009235056
0000b0 bf 90 a3 bc 67 6f 08 bd 22 c9 89 3c da bc 6e 3d
       -0.019966481 -0.033309367 0.01681954 0.05828557
0000c0 7c 3a a9 bd e3 b7 29 bd 16 a5 62 bd 12 4b a2 bd
       -0.08263108 -0.041435134 -0.05533322 -0.07924475
0000d0 ff 5e 3c 3d f4 23 e4 3c 7e e8 b7 3a 01 33 66 3d
       0.045989033 0.027849175 0.001403108 0.056200985
0000e0 bd 94 e5 3d 35 24 35 be 88 02 e8 3c a7 13 e6 3c
       0.1121001 -0.17689593 0.02832152 0.028085543
0000f0 7e 21 72 3d 44 9b 05 3e 41 e6 16 bb e8 98 74 bd
       0.059113972 0.1304751 -0.0023025426 -0.059716135
000100 d1 c9 d1 bc ca ea 0e bd 67 ac b0 3b 9c df 18 bd
       -0.025608929 -0.03489188 0.0053916457 -0.037322626
000110 c5 ba ac bd 78 72 08 bc f1 65 95 bd be 78 aa bd
       -0.08434061 -0.008328073 -0.072948344 -0.08323811
000120 ff 57 bf bc ec 12 44 bd 4a 24 91 3b 15 a0 d3 3d
       -0.02335739 -0.047869608 0.004429375 0.103332676
000130 86 04 2a bc b6 fe a1 bd 6f 41 98 3d bc 2b ce bd
       -0.010377055 -0.079099104 0.074343555 -0.100669354
000140 fb 76 88 bd 35 41 5a 3c 33 be f6 bc 27 71 89 3d
       -0.06663319 0.013321211 -0.03011999 0.06711035
000150 48 3b 85 bd df cc dd 3c 30 b2 20 be ee aa 05 3c
       -0.065054476 0.02707523 -0.15692973 0.008158429
000160 af e9 21 bd 9b a2 9a bd 89 50 63 3d 01 04 de 3d
       -0.0395295 -0.07550546 0.055496726 0.108406074
000170 a4 27 7a bc 9d 42 ef 3c bb 95 a4 bc c5 ed 20 3d
       -0.01526824 0.029206568 -0.020090928 0.039289255
000180 72 89 d7 3c 21 b1 b4 3d 6e 70 02 bc 1c 0c d5 bc
       0.026310656 0.08822847 -0.007961376 -0.02600675
000190 a2 43 8f 3d d1 fd a5 bd d8 2f 11 3d f9 dc 3e 39
       0.06995322 -0.08105052 0.035446018 0.00018202131
0001a0 a6 59 36 3d 34 47 e7 3d a8 52 c7 bd 82 a2 c8 3c
       0.04451909 0.11292878 -0.09732562 0.024491552
0001b0 9f 85 57 3d 2c 96 fb 3c e6 73 ce 3a bf 4e 70 3d
       0.052617665 0.030711256 0.0015751093 0.058668848
0001c0 ef 2d db bb c9 10 2c 3c 10 84 8c bc 13 5f 10 3e
       -0.0066888253 0.010502049 -0.017152816 0.14098768
0001d0 58 23 8c bd 4c f6 0b 3d 55 a0 3b 3d 24 6d 58 bb
       -0.06842679 0.034170434 0.0458072 -0.0033024037
0001e0 1d 74 1d 3d 3d 89 f7 3d 7c c5 a5 3c da f3 76 bd
       0.038440812 0.12086723 0.02023577 -0.06029115
0001f0 81 c2 33 bd 51 50 ee 3d c9 0d 07 bd b3 b0 06 be
       -0.043886665 0.11636413 -0.03297213 -0.13153343
000200 71 c7 98 3d b9 ce 4b 3d 11 c7 8b 3d 83 cc 65 3d
       0.074599154 0.049757693 0.06825078 0.05610324
000210 93 d2 f7 bd 7c da 5f 3d 1d f3 30 bd e8 0e e6 3d
       -0.12100711 0.054651722 -0.0432006 0.11233312
000220 01 02 8d bd c5 e6 f9 ba c0 84 90 bc cb 3f 3e bd
       -0.06885148 -0.0019065967 -0.017641425 -0.046447556
000230 26 5b 23 3d 2c 60 f2 3b fe af 87 3c 5b 04 0e bb
       0.039881848 0.0073967185 0.016563412 -0.0021670077
000240 ae 8f 2c 3d 92 29 19 bd 0d d4 c0 bd 28 96 1d 3a
       0.04212921 -0.03739316 -0.094154455 0.000601145
000250 06 8d 8e 3c 5b 6f 87 bc 70 c0 7b bb 65 23 38 bd
       0.01740123 -0.01653259 -0.0038414262 -0.04495563
000260 e9 bd 92 3d c7 7d a6 bd db 2d 60 bb 4f f3 e9 3c
       0.07165129 -0.08129459 -0.003420702 0.028558401
000270 44 28 80 bd 63 ba 8f bd 30 54 1b bd 1a 1d d0 3c
       -0.0625768 -0.07017972 -0.037922084 0.025404502
000280 0e de 8f 3c dd 50 1c 3d c3 c1 f8 3c ef 85 cc ba
       0.017561939 0.038163055 0.03036583 -0.001560388
000290 e2 12 4b bd f7 c6 e1 bc b9 d9 f5 3d 3c 99 84 3d
       -0.049578555 -0.027560694 0.12004418 0.0647454
0002a0 e4 39 a7 3d 71 84 87 3c df 2a 65 3d d4 6a 6b 3d
       0.08165339 0.016542645 0.05594909 0.057474926
0002b0 f6 fa 03 3d 1d a7 09 bd 79 bd a1 bd da 6e 1b bd
       0.032221757 -0.033606637 -0.07897467 -0.037947513
0002c0 69 52 a1 bc 64 fe 84 bc 39 a5 9e bd 5a 66 5d bc
       -0.019692617 -0.016234584 -0.077463575 -0.013513172
0002d0 25 ce 53 3d cb 2b b5 3c bb a0 bc bd f5 ac 68 3c
       0.051710267 0.022115609 -0.092103444 0.014201392
0002e0 62 65 9b 3d 86 0f 7f bd 15 11 1c 3c 2f 9d 04 3e
       0.075876966 -0.062270664 0.009525557 0.12950586
0002f0 23 60 7f bd 36 da 7e 3d 6f 05 b2 bd aa 46 d9 3d
       -0.062347542 0.06221982 -0.086924426 0.10609181
000300 84 0e a8 bd 05 16 9e 3d d4 0f 06 3d 50 cf 03 3d
       -0.08205894 0.07719044 0.03272994 0.03218013
000310 43 f1 63 bd b2 bb 88 3d 56 41 b8 3d 53 0c 1d 3d
       -0.055650007 0.06676425 0.08996837 0.03834183
000320 34 9e a4 bc b9 0f aa 3b 5b 50 a2 bd 43 02 30 bd
       -0.020094968 0.0051898626 -0.07925483 -0.042970907
000330 9f ca c4 bb 63 29 81 bd 59 14 4a 3d ad 54 91 bd
       -0.0060055996 -0.06306722 0.04933581 -0.07096229
000340 b7 3a 67 bd 5d 4e a1 bd 0c e4 2e 3b 04 32 9b bb
       -0.05645248 -0.07876275 0.002668622 -0.004736187
000350 b4 12 06 3c b3 f5 62 b9 b4 81 0b be 48 9c 01 bc
       0.00818317 -0.0002164457 -0.13623697 -0.0079107955
000360 04 7c a1 3b 85 c5 44 bd 50 d4 63 3d 5a 2e 91 3d
       0.004928114 -0.04803993 0.0556224 0.07088919
000370 f4 d4 9b 3d c4 42 6b bc 51 70 9a 3c ee e7 7e bc
       0.07608977 -0.01435918 0.018852385 -0.015558226
000380 67 67 2f 3c 7d 2a 8b 3d 36 23 da 3c 1b d8 05 3e
       0.010705805 0.06795213 0.026628118 0.13070719
000390 c9 47 41 bd 78 08 51 bd f6 75 7f 3c c2 cb b2 bd
       -0.0471876 -0.051033467 0.015592089 -0.0873027
0003a0 fc 9b c1 bc 65 68 b2 bc 1e 87 80 3b 6a ee 98 bd
       -0.02363395 -0.021778295 0.003922357 -0.07467349
0003b0 21 d5 85 3b 0b 80 c0 3d 0e f0 68 bc fb 6b 81 3d
       0.004084245 0.09399422 -0.01421739 0.06319424
0003c0 46 c2 bc 3b 6d 03 dc bd 8c 6d a3 3d 52 dd a1 3c
       0.005760464 -0.10742841 0.07979879 0.019758854
0003d0 c6 f4 6d bd a6 37 55 bc bf 76 86 bd 43 3b 60 bc
       -0.058094762 -0.013013756 -0.06565618 -0.013686004
0003e0 29 05 32 3d 6c 3b 1c 3c d5 89 56 3d a6 98 bc bd
       0.043461952 0.009535652 0.05237754 -0.09208803
0003f0 06 9f 50 bc 5b 14 ad 3d 2c f0 da 3c 56 0d 4f be
       -0.012733227 0.08451148 0.026725851 -0.20219931

lstm.weight_hh_l1 f4 [512, 128]
000000 af 52 74 bd e0 ce de bd e5 c8 9f 3d 90 cd b9 3d
       -0.059649166 -0.10879302 0.078019895 0.09072411
000010 b4 4f 06 3e d4 0c 88 bb f6 b4 ac bd f6 53 aa 3d
       0.13116342 -0.00415192 -0.08432953 0.083167955
000020 e4 a4 9e ba b1 ce 23 bd a2 f7 da bd db b2 95 3c
       -0.0012103585 -0.03999204 -0.106917635 0.018273761
000030 f9 e1 5e bd 28 c5 b3 3d c8 af e8 bc 3d f1 a8 3d
       -0.054414723 0.08777839 -0.028404132 0.082491376
000040 43 97 f5 bc 91 ab 02 bd cb 27 2f bd 32 22 d4 3c
       -0.029979354 -0.0319019 -0.04276256 0.025895212
000050 22 ab 8f bd e1 ea 21 3d a7 6d c6 bc 8c 3f fd bc
       -0.07015063 0.03953064 -0.024222208 -0.03091409
000060 bd b2 ac bc ea 8f 0f bd 02 54 e6 3c 18 87 2c bd
       -0.021081323 -0.035049357 0.02811623 -0.042121023
000070 b9 9d 89 bd aa a9 eb bd 12 6a 3f bc 4d d3 b6 bc
       -0.06719536 -0.1150697 -0.011683004 -0.022317553
000080 3e ca dd bc 3c 5c ba 3d 0e 35 9e bd d8 7b 37 3d
       -0.027073976 0.090996236 -0.07724963 0.04479584
000090 b0 f6 c3 bc 57 ca b0 bd a1 59 b7 3d f1 7d bc 3c
       -0.02392134 -0.08632343 0.08952642 0.023009272
0000a0 95 81 d5 3d 8b c1 a2 bc 5f 3f 75 bd 7d 2a 92 bd
       0.104251064 -0.01986768 -0.05987489 -0.0713701
0000b0 a7 04 64 3b 64 d8 64 bc 96 27 a3 3d 1e e9 e2 3d
       0.0034792812 -0.013967607 0.07966535 0.1107962
0000c0 5b 38 a9 bc 3b 89 fc bd b3 aa 08 bd 23 36 94 bd
       -0.020656755 -0.12330862 -0.033365916 -0.07236888
0000d0 22 cc 32 3d e6 5e 43 3d ea 57 c4 3c ea 4e 5d bd
       0.043651707 0.047697924 0.023967702 -0.054030336
0000e0 a6 8f db bd 0e 56 67 3d f6 0d 5d bd 70 69 ea 3c
       -0.10720758 0.056478553 -0.053968392 0.02861473
0000f0 31 ad c5 bc fa 5f 56 3d 4e 19 46 bd a6 83 37 3d
       -0.024130436 0.052337624 -0.048363976 0.044803284
000100 4e 5e 4b 3d db 49 29 3d 34 bd 02 bc 64 68 f4 bd
       0.049650483 0.0413302 -0.00797968 -0.119339734
000110 67 cd e7 bd 6e db 89 3c 5a b7 4c bd 50 6a bf 3d
       -0.11318474 0.016828265 -0.049979545 0.093464494
000120 95 34 68 3d 3b 81 09 3d 23 60 92 bd 9a b2 2d 3c
       0.05669077 0.03357051 -0.07147243 0.010601664
000130 35 9c 5a 3d 29 79 35 bd e1 4a 68 3c 0e fb a2 3d
       0.053371627 -0.044305 0.014178009 0.07958041
000140 a2 26 a2 bc c3 10 a6 3d b7 28 03 bd fa c8 06 3d
       -0.019793812 0.08108666 -0.03202125 0.03290651
000150 f6 b0 21 3d 56 97 28 bc 94 37 05 bd 7f 06 b1 3d
       0.039475404 -0.010289988 -0.032523707 0.08643817
000160 f5 39 a0 3c af db a7 bd d4 91 f0 bd 61 af f9 bd
       0.019558886 -0.08196198 -0.117465645 -0.12191654
000170 e4 4a 7e bc 16 62 8e bc 0e de 81 bd c6 34 08 bd
       -0.015520785 -0.017380755 -0.06341182 -0.033253454
000180 25 f2 bd bd e3 ba ea 3c a3 cb 28 bc 0b d7 c9 3a
       -0.09274701 0.028653568 -0.010302457 0.0015399171
000190 9d 8f 4b bd 2c 5f 97 bd 15 c0 fa 3b be 8e d7 bd
       -0.049697507 -0.073911995 0.0076522925 -0.10525273
0001a0 44 c2 da bd 5a d3 23 3d 42 66 85 bc 99 38 e5 bc
       -0.106815845 0.039996482 -0.016284112 -0.02798109
0001b0 15 37 29 bd 34 9a 56 bd 6b a8 9f 3c 09 87 13 3d
       -0.041312296 -0.052393153 0.019489488 0.03601745
0001c0 02 be bf bc 5f 88 ad bc 2f 32 d8 3d 50 ab 2c 3d
       -0.023406032 -0.02118319 0.10556447 0.042155564
0001d0 45 59 ac 3c 48 92 15 3d ca 55 e0 bc 37 f2 d2 3c
       0.02103866 0.036516458 -0.027384657 0.025750263
0001e0 12 8f ab bd 80 82 a9 3b 80 38 7d bd 37 ac b8 bd
       -0.08376898 0.0051730275 -0.06182146 -0.090172224
0001f0 07 b9 e2 3d 95 2f c2 bc d1 f4 a0 bd e0 f9 1b 3d
       0.110704474 -0.02370433 -0.07859195 0.038080096
000200 e9 bf c4 bd 85 6a 53 bd 58 d3 80 ba d1 05 40 3d
       -0.096069165 -0.051615257 -0.000982861 0.046880547
000210 08 41 3b 3d 36 65 d5 3d b4 f6 42 bd 9a 42 17 3d
       0.045716316 0.10419695 -0.047598556 0.03692875
000220 b0 d5 b1 3d e9 16 d4 bc 2b 6b f2 3b af 78 79 3d
       0.08683336 -0.02588983 0.0073980293 0.06090611
000230 c0 01 f3 3c 16 70 da 3d 67 9f 9c bc 34 26 e8 3c
       0.02966392 0.1066591 -0.019118978 0.02833853
000240 53 ad 81 3d 7d 16 24 bd 1b a1 af bd 5a c9 b6 bb
       0.06331887 -0.04006051 -0.0857565 -0.005578202
000250 07 53 eb bd aa ba 97 bc 30 11 6d bd 58 5c 9e bd
       -0.114904456 -0.018521626 -0.05787772 -0.07732457
000260 0d e8 0f bc a5 db 90 3d 85 74 9a bd a6 bc e0 39
       -0.008783353 0.07073144 -0.075417556 0.00042865163
000270 6f 15 b5 bc ad f0 ef 3c 38 8c 9c bd a2 3c 81 3c
       -0.022104947 0.029289568 -0.07643932 0.015775982
000280 af 84 39 3d d0 c6 ea bc 62 2e 56 3c fc 56 6f 3d
       0.045292553 -0.028659254 0.013072582 0.058432564
000290 e1 94 8b 3d d3 95 27 bc d8 c9 d6 3d d0 90 33 3d
       0.06815506 -0.010228592 0.104877174 0.043839276
0002a0 aa 00 85 3d e0 7f ce bc a0 8c 72 bb aa 43 85 3c
       0.06494267 -0.02520746 -0.0037010089 0.016267616
0002b0 e4 58 ae 3c c6 0e c3 bc 1b b0 47 3b 1c 3c be 3d
       0.02128262 -0.023810755 0.0030469957 0.09288809
0002c0 93 70 0b 3e 3d 2d fb 3c ff d8 86 3d 86 8c 13 bc
       0.13617162 0.03066122 0.065843575 -0.009005671
0002d0 72 8c bb 3d b9 8d b9 bd c2 36 86 3d 01 0e 0f bc
       0.09157647 -0.090602346 0.06553413 -0.008731366
0002e0 3c f7 74 3d 1a 24 6f 3c 28 8c a1 bd 3f ce c2 3d
       0.059806094 0.01459601 -0.07888061 0.095119946
0002f0 98 cd bc 3c 26 6b c7 bd 60 bb cd 3c 25 b6 50 3d
       0.023047253 -0.09737234 0.025113761 0.050954957
000300 cf 8e 7a bb bb ef ba bd 41 95 61 bd 22 ac 46 bd
       -0.0038232093 -0.09127756 -0.05507398 -0.048504002
000310 70 04 2a bc 3b 9f 2e bd eb fd e6 bc af cd 65 bc
       -0.010377035 -0.042632323 -0.02819725 -0.01402609
000320 66 37 b6 3d e9 d0 52 bc 92 00 ce 3c 74 3f a4 bd
       0.08897285 -0.012867191 0.025146756 -0.08019915
000330 92 7e 57 3d 3a 84 93 bd 0f 58 af 3c 09 d8 83 bc
       0.05261094 -0.072029546 0.021404294 -0.016094225
000340 4c 3f 7f bd ae 96 ce 3d 90 56 0b be 98 2b 38 bd
       -0.062316224 0.100873336 -0.1360724 -0.04496345
000350 70 21 08 bc aa 25 6d 3c c3 c2 0a bc 0d f1 d7 3d
       -0.008308753 0.014474312 -0.008469286 0.10544024
000360 1a 30 bb bc 8c f1 e3 bc c2 70 aa bc b6 00 50 bd
       -0.022850085 -0.02782514 -0.02080572 -0.050781928
000370 35 af e2 3c cf 4f 01 bd 27 b4 a6 bc 2b 9a 04 3e
       0.027671436 -0.031570252 -0.020349575 0.12949435
000380 3b 23 88 bd 18 1f 74 3d c9 7c b9 3d 33 76 5c 3d
       -0.06647345 0.059599966 0.09057004 0.05382366
000390 8e 7c e4 3b 88 7b f2 ba d8 16 52 3b c3 69 5a 3d
       0.006972856 -0.001849995 0.0032057073 0.05332352
0003a0 bf 6a 9c bc ff 50 bf bb 72 b5 8d 3d 0b f8 20 3d
       -0.01909387 -0.005838513 0.069193736 0.039299052
0003b0 91 d4 9b 3d f4 99 81 3d 8b fd 21 3c 72 b0 5b bd
       0.07608903 0.06328192 0.0098871095 -0.05363507
0003c0 40 71 8a bc 34 47 65 bc 53 4a 8c 3d 69 99 b9 3d
       -0.016899705 -0.013994027 0.06850114 0.09062464
0003d0 1b 2a 51 ba f7 87 8e 3d 5c 19 57 3d 23 4e ea 3c
       -0.00079789915 0.06959527 0.05251442 0.028601712
0003e0 f0 3d 31 bd 49 2a 06 bd 73 a5 ed bd 2e 6d eb bb
       -0.04327196 -0.03275517 -0.116038226 -0.007184646
0003f0 42 9f 2f 3d 18 5e 82 bd 7e 61 4e 3d 51 87 ec 3c
       0.04287649 -0.06365603 0.050385945 0.028873118

lstm.bias_ih_l1 f4 [512]
000000 b4 e0 6c bd 62 e6 0b 3d 00 b4 79 bd c1 ba 99 3c
       -0.05783148 0.034155257 -0.060962677 0.018765809
000010 02 54 d4 3d a7 82 92 3c dd 91 1c 3a 03 89 b3 3c
       0.10367586 0.017884566 0.0005972663 0.021915918
000020 2b e9 01 3c 37 d3 09 bd 40 e8 97 3d 35 07 34 bc
       0.007929127 -0.033648696 0.07417345 -0.010988046
000030 ee a9 8a 3d 4e 6c 7f bd 2c b8 a2 bd a7 ed 89 3d
       0.06770693 -0.062359147 -0.07945284 0.06734782
000040 6d fc f1 bd 19 a4 9b 3d 1e d5 b3 bd 76 81 f3 bd
       -0.118157245 0.075996585 -0.08780883 -0.11889927
000050 0b bf 60 bd 79 8b 73 bc e3 ce 97 bd 88 6c eb bd
       -0.054869693 -0.014864796 -0.074125074 -0.1149531
000060 2f 9a 87 bd 64 fc f5 bd 4d e4 21 bd f7 f6 95 3c
       -0.06621205 -0.1201103 -0.039524365 0.018306239
000070 9c ea d6 bb 87 b6 00 3d e5 eb 39 3d ca 02 b9 bd
       -0.0065587293 0.03142407 0.045390982 -0.09033735
000080 cf 9f 96 bd e1 4a d1 bd 55 ae f4 bc a1 a4 9f 3d
       -0.073547 -0.1021936 -0.029868284 0.07795072
000090 32 01 2d b9 5c 3e db 3c 48 10 0e bd 11 94 9a bd
       -0.00016499011 0.026763134 -0.034683496 -0.07547773
0000a0 67 1e 3e bd 3c 4f 25 3d 5b 66 c0 bd f4 59 23 3d
       -0.046415713 0.040358767 -0.09394523 0.039880708
0000b0 5f 2d 87 bd 36 cf e8 bb 91 4b fc bd ac 8f 37 3d
       -0.06600451 -0.0071047796 -0.12319101 0.04481475
0000c0 8a 49 9d bb e7 3c 08 bc 3d 23 68 3d ca 8f 43 bc
       -0.0048000263 -0.0083153015 0.05667423 -0.011936137
0000d0 41 50 99 3d 15 de f4 bc f3 8e 17 be 28 c3 54 3c
       0.0748601 -0.029891053 -0.14800625 0.012985982
0000e0 11 cb b0 3c 5b c9 20 3d 19 ed a3 3c 94 68 89 3d
       0.021581205 0.039254528 0.020010518 0.067094
0000f0 62 61 49 3d 56 79 d9 bd d1 a9 80 bd ae 9b 15 3e
       0.049165137 -0.10618846 -0.0628239 0.14610168
000100 10 c7 c0 bd ba 90 01 3d 18 b2 0f 3d 5a 03 7b 3e
       -0.09412968 0.031632163 0.035081953 0.24512997
000110 45 ea 88 bd 33 84 ab bc 75 81 20 bd f4 e8 98 3d
       -0.06685308 -0.020937061 -0.03918596 0.07466307
000120 06 48 29 bd e1 6e 0a bb e3 ea 9d bd 5e 1f e1 b9
       -0.041328453 -0.0021123218 -0.07710817 -0.00042938715
000130 c0 36 c0 bd 22 7f c7 3d 45 fb 68 bc 53 14 94 3e
       -0.09385443 0.097410455 -0.014220064 0.28921756
000140 72 38 a3 bd 74 1d 4b 3d 49 d3 1a 3a 56 50 17 3d
       -0.079697505 0.049588636 0.0005906118 0.03694185
000150 dc d8 2e bd 71 bc a8 3c 19 ea e3 3e 52 59 3d bd
       -0.042687282 0.020597668 0.4451454 -0.04622776
000160 74 a7 79 3d aa dd a8 3d ae 43 b1 3d 0b 53 2e 3b
       0.06095071 0.08245404 0.08655487 0.002659979
000170 68 cf 9b bd 30 5a 76 3d eb 98 4a bc 95 e6 c0 3d
       -0.07607919 0.060144603 -0.01236556 0.0941898
000180 ba 98 73 3d 45 35 af 3c b9 35 34 bc bd af de 3c
       0.059471823 0.021387706 -0.010999137 0.027183408
000190 af d6 a2 bd 2c fa 85 bd b2 24 6a bd 3f b3 6e 3c
       -0.07951104 -0.06541857 -0.0571639 0.014569103
0001a0 cc ec a3 3d 67 29 17 3d d1 08 a3 3d a8 be ad 3c
       0.0800415 0.03690472 0.07960666 0.021209076
0001b0 f2 b4 90 3d 53 fc 25 bd bf a2 96 bd 99 15 5f 3d
       0.070657626 -0.04052384 -0.0735526 0.054463957
0001c0 ec 15 9c 3c f7 ba 95 bd d0 43 7c 3d 21 d9 df 3c
       0.019053422 -0.07311051 0.06158811 0.027325215
0001d0 7b b7 2e bd f3 a1 4d 3d f9 2c d6 3c fc 5d b8 3d
       -0.04265545 0.050203275 0.026144492 0.09002301
0001e0 1c c7 2a bc b7 35 bb 3b e0 7c ce 3d 9d 3a d4 3c
       -0.010423448 0.0057131904 0.10082412 0.025906855
0001f0 f3 2f ad 3d d2 4f 17 bd 3e cb a1 bd 5b 47 bf bd
       0.08456411 -0.036941357 -0.079000935 -0.09339782
000200 22 af c0 bd a4 0d b5 bd e2 85 1d 3c ac 55 5e bc
       -0.09408404 -0.08840492 0.00961444 -0.01357023
000210 5f 49 8f bc 19 24 a2 bd 0e 96 a4 bd e3 23 bd bd
       -0.01749104 -0.07917041 -0.08036433 -0.092353605
000220 1b b0 d6 bd bc eb 0d bc ec d1 7a 3d 0e 98 d6 bb
       -0.10482808 -0.0086621605 0.061235353 -0.006548888
000230 81 10 53 be 6c 7d 06 3d fc 28 0f 3d 16 e0 08 3c
       -0.20611764 0.032834455 0.034951195 0.0083542075
000240 a7 fb b0 bc d6 1c 1e bc 78 2d de 3c f5 fa a8 bd
       -0.021604372 -0.00965043 0.02712129 -0.08250991
000250 3f e7 f8 bd 0b 8a 84 bd 91 b2 a7 bd 2f 4b 27 3c
       -0.12153482 -0.06471642 -0.08188356 0.010210796
000260 4e d1 90 3b e8 0e 9b bd 03 b1 b2 bd 42 85 51 3d
       0.0044194823 -0.075712025 -0.087251686 0.051152475
000270 07 bd 78 bd 7a e3 a6 bc 81 33 9a 3a 07 1a 9b bd
       -0.060727146 -0.020372141 0.0011764617 -0.07573324
000280 d9 80 d5 bd f9 96 ea bd 38 f0 74 bc 18 30 d8 bd
       -0.10424966 -0.11454577 -0.014949851 -0.10556048
000290 94 e5 f8 bd 55 1c 13 bc db 51 37 be fc 55 a9 bd
       -0.121531636 -0.008978923 -0.17902319 -0.08268353
0002a0 43 73 76 bd c6 82 95 3c 6d 56 f3 bd 0d 63 cd 3b
       -0.060168516 0.018250834 -0.11881719 0.0062679113
0002b0 d7 d1 98 bd fd d3 1e bd b9 51 95 bd 58 ba 32 bd
       -0.07461899 -0.038776387 -0.07290978 -0.043634742
0002c0 ae 91 d0 bd c5 4e 74 3c 37 ed 97 bd ec 2b 34 3d
       -0.10184036 0.014911358 -0.07418292 0.0439872
0002d0 df c6 33 3c ae 6c c1 bd 61 95 05 bc c6 9f 55 3d
       0.0109727075 -0.09444557 -0.0081532905 0.052154325
0002e0 3d d5 b2 bd 57 6d a7 bd 04 35 1f bd 77 88 42 bd
       -0.08732078 -0.08175152 -0.03886892 -0.047493424
0002f0 87 6c 11 3d 86 9f 38 bd ad c7 c7 3b 29 fd 19 3d
       0.03550389 -0.04507401 0.0060968013 0.037594948
000300 06 65 0a be 5e eb f4 3c 97 9b dd bd 7f fe 2e 3d
       -0.135151 0.029897388 -0.10820692 0.042723175
000310 04 ec bb bd f9 c8 81 3d 00 0c 2b bd 04 d6 54 bc
       -0.09175876 0.063371606 -0.04175949 -0.012990478
000320 db 3e 7b bd 84 d1 a8 bc ae 2e b9 bd ef 44 4d 3d
       -0.06133924 -0.020607717 -0.090421066 0.05011457
000330 44 ca 97 bd b6 72 e4 bd dc 7e e4 bd 6b fc 15 3d
       -0.07411626 -0.11154692 -0.11157009 0.036617678
000340 2f 24 55 3c 49 be 9d bc ac eb 02 be 3c 08 60 bd
       0.013009115 -0.019255774 -0.12785214 -0.054695353
000350 2d df fd bc 3e 82 7d 3c 6e 27 a3 bd 7f c6 90 bd
       -0.030990208 0.015472947 -0.07966505 -0.0706911
000360 52 6f 33 3c 58 65 d8 38 c7 d5 e2 bd 3c f7 0f be
       0.010951834 0.00010318559 -0.11075931 -0.14059156
000370 63 d5 4a bd 62 60 68 bd 12 31 8c 3d 82 a7 cb bd
       -0.049519908 -0.056732543 0.06845297 -0.09944059
000380 70 3a 94 3c 82 7a a4 3c a4 70 8c 3c 22 51 a4 bd
       0.018094271 0.020077948 0.017143555 -0.08023287
000390 51 af bc 3c b1 44 e0 3c 51 c4 03 be 68 e4 3b 3d
       0.023032816 0.027376505 -0.12867858 0.045872122
0003a0 d0 d5 1f 3d a5 bb f5 bc 49 2a bb 3b 88 96 8c bc
       0.039022267 -0.029996702 0.005711828 -0.017161623
0003b0 e6 30 0c 3d b9 27 e0 bd f8 ab 5f bc dd fa c8 bb
       0.03422632 -0.109450765 -0.01365184 -0.006133421
0003c0 68 2a b0 3c 53 4c bd bd 6a b3 0d 3d 0d a6 95 bd
       0.021504596 -0.09243073 0.03459493 -0.07307062
0003d0 32 ed 27 bc 0a 78 72 3d 66 de 39 3d 9a 8f 36 bd
       -0.010249423 0.05919651 0.04537811 -0.044570543
0003e0 da bf 36 3d fa 17 e5 bd 09 9f ef 3c 82 05 81 bd
       0.044616558 -0.11186214 0.029250639 -0.06299879
0003f0 62 f9 ae bc 9b 4f dc 3c a5 3a 39 bc 32 7f 0e bd
       -0.02135915 0.026893428 -0.011305486 -0.03478927
