weights/Time_Att.pth (torch, 21331 bytes, 8 tensors)

attention.in_proj_weight f4 [60, 20]
00000000: f3fa 90bf 4143 eabe ba4c d1be 8857 263e
00000010: 061e e73d 5ded 80bd e407 55bf 3161 26bf
00000020: 92b7 09bf e519 4b3c c9c1 b9bd da41 2cbe
00000030: c5c0 8ebe 578a 273d 20c4 4abf ba89 f5bd
00000040: 3e68 4ebf d4de c8be 2e07 5cbf 4564 44bf
00000050: 3b4e a5bf 18fc f4bd e8c5 2bbe 18e8 5a3e
00000060: 3621 4d3e e820 49be e067 80bf 29e1 0abe
00000070: 02b2 5bbe 3c26 6abe 5bcd 5abe 502b bdbe
00000080: e080 babe a89c bbbc ae7f f3be 2822 44be
00000090: 05a2 3fbf 308b b4bd ab58 3dbf 9489 68bf
000000a0: 2f81 4c3f ce3c 813e c9e2 293e 1c4a 46be
000000b0: 98c1 a93d 817e 23be 0e51 883e 4a2b 593d
000000c0: de4a 073f 5b88 533e ea69 913e 3015 1a3e
000000d0: d949 4c3e b46d 95bd aa20 213e b7a8 613e
000000e0: 6ce5 8d3e 74d1 5bbd cc56 e23e b7b6 273f
000000f0: df55 c03f 23cc 9a3e 5580 db3d 7850 173d
00000100: b9fd 203d 55b9 b73c 04d0 843f 0331 c93e
00000110: 1885 443f 0ed7 c43e 10b3 d03e c1e5 a73e
00000120: 2a52 b33e 96e4 623e c987 263f ce8e d03e
00000130: abb3 653f 69ff 483f 5222 4f3f dd26 3c3f
00000140: cef2 d1bf d510 0abf c1ad 8dbe 5854 513e
00000150: d095 d4bd 00d5 44be 8171 9fbf 9f32 21bf
00000160: 5959 11bf 7fe4 03be 9ca0 e7be 4db1 1cbf
00000170: b42a c5be 26ab 12bf 9e2c 83bf e2f3 4ebf
00000180: d321 3ebf 8096 85bf 35f1 55bf d86e 65bf
00000190: 0a5e f63f 513c 673f 73b4 0f3f 14e0 2f3e
000001a0: 78df 403f 15a1 a23e e02f c43f b0da 5d3f
000001b0: 8936 6b3f 6d27 c03e 4404 523f 7176 f63e
000001c0: 1f3c 323f 35b4 603f f9e7 ad3f 46d3 5e3f
000001d0: c599 873f afc2 8b3f fbe0 9a3f be10 c63f
000001e0: 0289 cd3f 9a84 153f cce3 bf3e 009e 473d
000001f0: 8508 283f 3571 d93e ed13 b83f f2ae 623f
00000200: 3fe0 7c3f 40c8 133e df28 0a3f 5c4d 173f
00000210: 228e 023f 5967 183f fa1c 7f3f 7b72 0c3f
00000220: 9390 a73f e2a7 7c3f f017 b43f 2822 bc3f
00000230: 2104 fa3f de50 783f 1386 1e3f 9a3b 71be
00000240: 8494 be3e b6d8 c93e 227c 883f aafd 233f
00000250: 458a 083f ff37 a53d 221b 113f 2374 ab3e
00000260: 7d26 0c3f 0bf4 343f 7acf ab3f fd50 3d3f
00000270: 065a 943f fad4 913f 38b2 963f 736c 883f
00000280: 8ae2 9fbf 69ed 3fbf 6ebc afbe f4ba 773e
00000290: 1067 92be 1451 84be 37c4 8ebf 614b 08bf
000002a0: 3c50 14bf 0479 18be 7917 b2be 0917 00be
000002b0: 3b27 23bf 9651 b2be bedf 6dbf 1399 46bf
000002c0: 0170 70bf 52d5 73bf f262 4cbf 264f 6dbf
000002d0: 372f 86bf c804 c6bd 8014 ccbe 7af1 d8bd
000002e0: 1f39 e8bd 9fe3 95be 8ae5 3ebf c8ba 9ebe
000002f0: e70c b9bd b6c0 743e 7cd8 3e3d 30a8 70be
00000300: aa74 86be 3244 483e f1dc 91be 9dce 20be
00000310: 4edb e3be e249 e0be 7210 29bf b624 95be
00000320: 752f e4bf 60a2 febe ed1e 01bf 73e0 1cbe
00000330: cc8f 70be d783 ccbe 5a71 92bf 5079 c5be
00000340: 8fe9 8ebf db16 acbe 7972 10bf 9e65 d9be
00000350: b4a0 68be 5207 2bbd e05c 49bf 5d2e febe
00000360: 5182 73bf 07c9 11bf 517b 82bf 37f9 75bf
00000370: c315 2e40 1aee 7b3f 92c1 9c3f 14f1 2f3e
00000380: f44f 333f 6275 563f c236 0740 4d3a 923f
00000390: 9a8a d23f c24f 793f 9b77 b63f 6c3b 693f
000003a0: f99b af3f ddd0 873f ddbd d43f 4be2 bb3f
000003b0: 60ba c33f 34eb 943f 4597 ca3f b198 e13f
000003c0: 2b85 0fc0 fac3 0abf 4de3 40bf 3a08 133e
000003d0: adce cabe 2cab f8be c84c 98bf b3bc 16bf
000003e0: d2cb 3fbf bfcd 35bf 2622 31bf c9b8 dcbe
000003f0: d381 b2be 2326 cdbe 08f3 91bf bebe ebbe
-1.1326584 -0.45754436 -0.4087885 0.16244328 0.112850234 -0.062952735 -0.83215165 -0.6499205
-0.5379573 0.01239631 -0.09070165 -0.16821995 -0.27881446 0.040903416 -0.79205513 -0.1198916
-0.8062781 -0.39232504 -0.85948455 -0.767155 -1.2914499 -0.119621456 -0.16774714 0.21377599
0.200322 -0.19641459 -1.00317 -0.13562454 -0.21454623 -0.22866148 -0.213674 -0.36947107
-0.3642645 -0.022901848 -0.4755835 -0.19153655 -0.748566 -0.088156104 -0.7396342 -0.9083493
0.7988462 0.25241703 0.16590418 -0.19364208 0.08288878 -0.15966226 0.2662434 0.0530198
0.52848613 0.20657484 0.2840112 0.15047145 0.19950046 -0.07296315 0.15735117 0.22037016
0.27714097 -0.053666547 0.44206846 0.65513176 1.5026206 0.3023387 0.10717837 0.036941975
0.03930447 0.02242724 1.0375981 0.39295205 0.76765585 0.38445324 0.40761614 0.32792476
0.35023624 0.22157511 0.6505094 0.4073395 0.89727277 0.78514725 0.80911744 0.734968
-1.6402223 -0.53931934 -0.27671626 0.20442331 -0.10380137 -0.19221878 -1.2456514 -0.62967867
-0.5677696 -0.12880133 -0.45239723 -0.6120804 -0.38509142 -0.572924 -1.0247991 -0.80840886
-0.7427036 -1.0436554 -0.8357118 -0.8962226 1.9247448 0.9032641 0.5613472 0.17175323
0.75340986 0.3176352 1.532711 0.86661816 0.9188009 0.3753008 0.8203776 0.4813724
0.6962299 0.87774974 1.3586417 0.8704113 1.0593802 1.0918788 1.2099909 1.5473859
1.6057436 0.5840546 0.37478483 0.048734665 0.65638 0.42469183 1.4381081 0.88548195
0.9877967 0.14431858 0.53968614 0.59102416 0.5099813 0.59532696 0.9965359 0.54862183
1.3090996 0.9869367 1.4069805 1.4697924 1.953251 0.96998394 0.6192333 -0.23557892
0.37222683 0.3942315 1.0662882 0.64058936 0.5333598 0.08067321 0.56682026 0.33487043
0.5474623 0.7068488 1.3422692 0.73951703 1.1589973 1.139312 1.1773138 1.0658096
-1.2491009 -0.74971634 -0.34323448 0.2419241 -0.28594255 -0.25843108 -1.115363 -0.5324002
-0.5793493 -0.14889914 -0.34783533 -0.12508787 -0.63731736 -0.3482787 -0.9291953 -0.7757732
-0.93920904 -0.95247376 -0.7983848 -0.92698896 -1.0483159 -0.09668881 -0.3985939 -0.10592933
-0.1133902 -0.29275224 -0.74569 -0.31001878 -0.09035664 0.23901638 0.046593174 -0.23501658
-0.26260883 0.19557264 -0.28488877 -0.15703817 -0.44503254 -0.43806368 -0.6604072 -0.2912957
-1.7826983 -0.49733257 -0.50437814 -0.15319996 -0.23492354 -0.39944336 -1.1440842 -0.38569117
-1.1165026 -0.33611187 -0.5642467 -0.4246034 -0.22717553 -0.041755028 -0.7865734 -0.49644747
-0.9512072 -0.5694737 -1.0193883 -0.96083397 2.7200782 0.9841019 1.2246573 0.17181808
0.70043874 0.8377286 2.1127172 1.1424042 1.6448548 0.97387326 1.4255251 0.91106296
1.3719474 1.0610615 1.6620442 1.4678434 1.5291252 1.1634278 1.5827414 1.7624723
-2.242503 -0.54205287 -0.75346833 0.14358607 -0.39610806 -0.48568094 -1.1898432 -0.5888168
-0.7492038 -0.7101707 -0.6919273 -0.4310973 -0.34864673 -0.40068159 -1.1402292 -0.46043962

attention.in_proj_bias f4 [60]
00000000: fd1e b4bf a9ea b7bf d020 903f 866e b63f
00000010: 85a9 bebf 6d41 f33f 2467 eb3f 466b e73f
00000020: 7804 b8bf 8c39 8cbf 5960 e6bf 2ccc 2740
00000030: 9bd8 f1bf e991 0740 9366 1540 2210 2b40
00000040: 63ab 18c0 1a63 15c0 48fb 3640 d731 fa3f
00000050: d4cd e43d c73d ca3d b61a d5bd 74f2 d1bd
00000060: e47b e43d 33cb cebd 3878 d5bd 6914 b9bd
00000070: c77e c93d 0c30 bd3d 9745 253b 0c2e edbb
00000080: fac4 4e3d d269 f53a daae 63ba 4291 e3bb
00000090: e8da 9b3c 1fc1 f13b 1127 96bd 9e10 10bd
000000a0: b621 633b 4625 6ebc 52ad 04bd 5220 44ba
000000b0: bedf dbba 5d04 073c 531d 30bd f3a7 00bc
000000c0: 976a 9dbc ca18 8c3d 11dc ac3c 1ae9 f5bb
000000d0: 9f7a b43c 85e3 de3b 36bc a5bc f3e5 aabc
000000e0: fb6b 70ba 910e d4bc 5f4c 8e3d 5329 42bb
-1.4071957 -1.4368488 1.1260014 1.4252479 -1.4895483 1.9004341 1.8390851 1.8079612
-1.4376364 -1.0955062 -1.7998153 2.6218367 -1.8894228 2.1182806 2.3343856 2.6728597
-2.3854606 -2.3341737 2.859087 1.954646 0.11172071 0.09875064 -0.10405485 -0.102513224
0.11156443 -0.10097351 -0.104233205 -0.09037096 0.09838634 0.0923768 0.002521848 -0.007238155
0.05048082 0.0018723554 -0.00086854177 -0.0069448063 0.019025281 0.007377758 -0.0733167 -0.035172097
0.0034657544 -0.014535254 -0.032391854 -0.0007481623 -0.0016775054 0.008240786 -0.042996716 -0.007852542
-0.019215865 0.06840666 0.02110103 -0.0075045945 0.022031127 0.006802025 -0.020231348 -0.020861601
-0.0009171364 -0.025885852 0.069481604 -0.0029626682

attention.out_proj.weight f4 [20, 20]
00000000: 6819 173e a278 7e3e 3b8a 013d ab21 413e
00000010: 618b a0bd 0291 6a3b 77de 9ebe 6118 933d
00000020: 88cb 2e3e 8420 29be 3593 613e 246b 10bd
00000030: b5cf 043e b163 ba3d 8abf 9d3d a62f 63bd
00000040: a954 953e db0f 35bc 6edd 11bc ebd9 3f3e
00000050: 7c68 05be 30c1 49bd acf9 0bbe 8c7f 003e
00000060: 0b96 49be 732d 07be b6e3 c4bd 82fc d3bd
00000070: 15cc 05bc aab3 34be 55ad 1b3e a291 12be
00000080: a295 1b3e 908a 1f3d 6db2 a9bd a587 1f3e
00000090: b10c 503c ee45 2f3e f682 56bc 8dd4 c9bd
000000a0: cda7 be3d 30a7 60bd 53ae 683e b45d 773e
000000b0: 58f8 1d3e 06fe a9bd 2345 4dbd 7025 653d
000000c0: e8a2 0e3e 68b7 44be 84a5 28be 4355 59be
000000d0: 7587 83be 0d9c 273e 96ff b43d d92e f53d
000000e0: 5194 453e fde6 f23b 35d8 543e db1d 03bb
000000f0: f316 1f3b 23be 4fbe 8ce5 a3bc a969 b6bd
00000100: 5eb1 753d db72 6dbd 7875 993e c17a f2bd
00000110: c731 0ebe 82ec e2bd 5d2e 133e 7f19 fc3d
00000120: f959 893e 3825 34be 4c37 61be f092 1dbe
00000130: 9d6c 89be 15f3 f13d 2655 9a3c aa35 233d
00000140: 0318 aabd 2da4 54be c2a7 df3d 9cfa 1abd
00000150: 7462 3c3e 2ec3 1abd d06a 763e 1eba dbbd
00000160: 6b9d e9bd 3259 403d 3c50 46bc fd9c 28bd
00000170: bfe6 263e cf51 2e3e df53 0cbe 53f3 cbbd
00000180: 9c03 213e e22a dcbc 1261 04be d023 92be
00000190: 83bb 24be b6dc 753d 5d03 25be 37b8 4abe
000001a0: 4dcc 9ebc 2dff 2abe 205d 23bd df85 e6bd
000001b0: e222 7dbe cd6d 98bd 06aa db3d f36d 223e
000001c0: 229f 1a3e f802 37be 2a32 38be 6f1c efbd
000001d0: c462 93bd 8cff 5fbe 5b64 eabd b9fb 79be
000001e0: ac76 22bd a6a0 81bd dbf6 31be e550 47be
000001f0: 1400 3ebe 289e 09be a2df 1e3e 02cc 37be
00000200: 9dad 003e 2044 123d 766c d23c b756 593e
00000210: 1503 b2bd 1ad5 383e 105c ddbd 7311 20be
00000220: 5a72 a2be 96ad 83be 22a1 603d 1a2b 31be
00000230: be4e 6c3d ff5f 04be 9b87 813e 1dbb 42be
00000240: 0e00 aabd ef20 0ebc 3fdd febd d7a5 0e3e
00000250: bf3e 233e 6ae6 31be a1d5 983d c44a 2fbe
00000260: 636b 8dbd 481e ccbd c52b 383e d609 35be
00000270: f9eb 733e 35d4 fc3c 8fb6 333e 38c6 8b3c
00000280: b7ad 323e da4b e13c b1fa c3bd 7a50 6ebe
00000290: f567 943d 6d40 4dbd ba2f b63d 9ebf 363e
000002a0: cc4d 3b3d c63d a7bd 5351 2ebe 0a46 c03d
000002b0: b830 583e f39f 13bd bdb6 11be 59d5 b6bd
000002c0: ae7c a1be 289a af3d f691 f63d d3be c6be
000002d0: f786 ad3c 18bd 153e 9d8c 0e3e 545d e9bd
000002e0: 746a 863d e790 453d 3e40 78be ccc5 b5bd
000002f0: 94f8 d2bd 0de9 ba3c d9b1 313b c8dc 45be
00000300: 6081 ac3c df0b 573e 4368 f1bc 0505 c5bc
00000310: a292 3e3e 9a3a 5fbd dc04 253e e778 6a3e
00000320: 9fc8 68be fe70 1ebd b851 0e3e 49c1 7a3d
00000330: 1af5 1dbd 67b4 ffbd a235 eabd feb0 0cbe
00000340: e505 07be 1f3b 073e e314 e53d c46e 433e
00000350: 11e3 4bbe d6ce 25be 30c8 46bd 55a5 223e
00000360: 3611 7a3c 9da4 debd 718d b63d a4cb 1fbd
00000370: 9941 25be 89c6 f73d dd8a 7bbe 766c 92bd
00000380: c7ab 74be 236f 1c3e 4afc ca3e 5a8a b33d
00000390: 0179 38be c385 3abe 89dc 77be 15ca 9b3e
000003a0: 32a1 493e 81c9 4c3e 1cab e83d fadf 363d
000003b0: bb3f 2cbe 8288 24be 4699 84be 5cbd d1be
000003c0: 4488 6d3d 005d f3bd 28d0 1bbe 49f7 25be
000003d0: 3e25 83bd 2abc 2ebe 483c b7bd 1899 af3d
000003e0: 4c05 d4bd 16e2 4e3e 6e09 ccbd 8da2 93bd
000003f0: c848 b9bb 06b1 f6bd fbe0 b5bd bc55 5cbe
0.14755785 0.24850705 0.031625967 0.188605 -0.078390844 0.0035791998 -0.31029102 0.07182384
0.17069829 -0.1651631 0.22028811 -0.035258427 0.12969859 0.09101046 0.07702549 -0.055465363
0.29166153 -0.0110511435 -0.008902891 0.18735473 -0.13028139 -0.049256504 -0.13669461 0.12548655
-0.19686143 -0.13200931 -0.09613745 -0.103508964 -0.008166333 -0.17646661 0.1520284 -0.14313367
0.15193799 0.038950503 -0.08285985 0.15579088 0.012698338 0.1711652 -0.013092747 -0.09854994
0.09309349 -0.054846942 0.2272275 0.24156839 0.15426767 -0.08300404 -0.050114762 0.055943906
0.13929331 -0.19210589 -0.16469389 -0.21223931 -0.25689283 0.16368122 0.08837812 0.11971826
0.1929486 0.00741279 0.20785601 -0.002000681 0.0024275153 -0.20287375 -0.020006917 -0.08906872
0.059983604 -0.057970863 0.29972434 -0.1183982 -0.13886176 -0.110802665 0.14373155 0.123095505
0.26826456 -0.17592323 -0.2199375 -0.15388083 -0.26840678 0.11813942 0.01883943 0.0398461
-0.08305361 -0.20765753 0.10920669 -0.037836656 0.18396932 -0.037783794 0.24064183 -0.107288584
-0.11406978 0.046960063 -0.01210409 -0.04116534 0.1629896 0.17023395 -0.1370387 -0.0995852
0.15724033 -0.026875917 -0.12927654 -0.28542948 -0.16087155 0.06002494 -0.16114564 -0.19796835
-0.019384528 -0.16698904 -0.039883733 -0.11256003 -0.24720338 -0.07442818 0.10725789 0.15862255
0.15099767 -0.17872226 -0.17987886 -0.11675345 -0.071965724 -0.21874827 -0.114449225 -0.24412431
-0.039663956 -0.063294694 -0.17379324 -0.19464453 -0.18554717 -0.13439238 0.15514997 -0.17948917
0.12566228 0.0357095 0.025686484 0.21224485 -0.08691994 0.18050042 -0.10808575 -0.15631656
-0.31727868 -0.25718373 0.05484117 -0.17301598 0.057692282 -0.12927245 0.2529877 -0.1901669
-0.08300792 -0.008674844 -0.12444543 0.1393045 0.15941904 -0.17373052 0.074626215 -0.17118365
-0.06905248 -0.09966713 0.17985447 -0.17679533 0.23820485 0.030862907 0.1755011 0.017062292
0.1744908 0.02750199 -0.095693 -0.23272887 0.07246391 -0.05011027 0.08895822 0.17846534
0.04572849 -0.08166079 -0.1702321 0.09388359 0.21112335 -0.03604121 -0.14229865 -0.089274116
-0.31540436 0.08574325 0.120395586 -0.38817462 0.02118252 0.14622915 0.13920827 -0.11394754
0.06563273 0.048233893 -0.24243256 -0.088756174 -0.10301319 0.022816205 0.0027114062 -0.19322503
0.021057785 0.21000622 -0.029468661 -0.024050245 0.18610623 -0.054499246 0.16115135 0.22897683
-0.22732781 -0.038681976 0.1389836 0.061219487 -0.038563825 -0.12485581 -0.11436011 -0.13739392
-0.13185842 0.13206147 0.111856245 0.19085222 -0.19910838 -0.16192183 -0.048530757 0.15883382
0.0152628925 -0.10871241 0.089136966 -0.039012566 -0.16138305 0.120984145 -0.24564691 -0.071495935
-0.23893653 0.1527677 0.39645606 0.08766623 -0.1801491 -0.18215089 -0.24205221 0.30427614
0.19690397 0.19998743 0.113607615 0.044647194 -0.16821186 -0.16067699 -0.25898188 -0.40964782
0.05799128 -0.11882973 -0.15216124 -0.16207613 -0.06403588 -0.17063966 -0.089470446 0.08574122
-0.10352573 0.20203432 -0.09962736 -0.072087385 -0.005654428 -0.12045483 -0.08880802 -0.2151708

attention.out_proj.bias f4 [20]
00000000: a538 09bd 0a37 533c 1560 693c d997 5c3c
00000010: 56d6 d3ba 5cfb e8bb 84f2 babc 376a 9fbc
00000020: b0f1 3abc c11a 263d 1856 a13c 3cff 9dbc
00000030: 4cf1 8f3c 2ecb 0bbd b0c3 7abc 8a87 e93c
00000040: e50c 09bd 7c04 dd3c a076 643d 32d2 283d
-0.033501286 0.01289154 0.014244099 0.013463938 -0.00161619 -0.0071100425 -0.022820719 -0.019459827
-0.011410162 0.04055286 0.019694373 -0.019286744 0.017571114 -0.034129314 -0.015305445 0.028507013
-0.033459563 0.026979677 0.055777192 0.041216083

linear1.weight f4 [128, 20]
00000000: 71ca 01be af78 c2bd 00d1 9d3d 36b2 023e
00000010: 8dff 253e 91b3 25bc 4e4b 823d 3268 57be
00000020: 97c1 fe3d d7f6 113e 84d3 d83d b53d bcbd
00000030: a343 bebc f2da ad3c 197e 4ebe 325c 5dbe
00000040: 4c21 82be b5b0 403d 3677 e73d ddc8 b13c
00000050: 59c7 42bd 38ea 17bc e17f 69be 9108 ca3d
00000060: 3f5b 903d 4acc 41bd 94c0 9b3e e62e 80be
00000070: d901 2a3e e22a 95be a8ea 97bd 9558 d83d
00000080: 05a1 ce3d e0f5 3dbe 1e43 253e 9ca5 87be
00000090: 56c9 213c 3a59 96bd a7fb 693e a45b 1fbe
000000a0: 9019 54bb f0ee 4cbd 0918 283d ca1f 343e
000000b0: 09e4 04be 70b8 f43d defa aabd b300 be3d
000000c0: 5cc9 f43d d19f 29bd c9ad 93bd 0064 033e
000000d0: c34f 72bd f350 1abb cbd1 863d baab ae3c
000000e0: b932 373d 4c01 eabd 3942 b03d c5ef 41be
000000f0: ec45 c7bc edd5 edbc ae99 643e 739c e33d
00000100: 05db 9c3c e027 733d d36a 7dbe 3c0a a53d
00000110: 7cef 7fbe 075b d2bd 99b8 3ebe 62e2 f9bd
00000120: 0a56 c93d 6904 923e 3aca 1bbe 6792 93bd
00000130: 9228 153e c387 f83c 3446 1ebe e4b6 a0bc
00000140: e37d 09be 20ce a83d 6cef 533e a1ca c4bd
00000150: 863a bc3d a9de c03d 16de 2a3e ff23 41bc
00000160: 04bf a13c 2885 343e 4c35 033e 71ae 6f3e
00000170: 0f14 53bd 15fe 9a3d 16a0 133e e5f8 27be
00000180: 8141 013d 6de6 1bbd 58e3 053e 738d e7bd
00000190: 5ba1 823d c996 063e 542b 32be ac87 53be
000001a0: 527b 13be 96d3 f03d d43c ed3d 2cda 00be
000001b0: e703 d93b 7a8c d3bd ea8c ecbd faf5 063e
000001c0: 4a87 cc3d 3732 3fbd 0a73 133d 3987 803d
000001d0: 5441 b53d 0999 d0bd 558b 62be 7084 2c3e
000001e0: 80a5 b13b b80d 8c3c 4782 cbbd f133 e03d
000001f0: 1855 303e c62f 033e 1a2f 783d ec45 4d3e
00000200: da61 903c 0abf c2ba 0602 1d3e 774a 8f3e
00000210: 53b0 06be fbbe 463e aa35 a03d 9d54 e8bc
00000220: f66b 163e b6da c7bd d439 5c3e 0597 623e
00000230: 9f9d 23be cfce 0cbe d195 68be a90e 0ebd
00000240: 1b43 4abe effd 8dbd 356a 963d f429 1c3e
00000250: 3fb5 f33d 80ca 043e df99 b23d 1a53 08be
00000260: 841c 30be bf2a 733b a4bc 533e 2a68 e63b
00000270: 1217 cbbc 72b8 15be dcae d7bd 1433 36be
00000280: 6a8d 183e a492 73bc 08f6 76be cf74 943d
00000290: cab7 413d 3ca5 a23c fdc5 fa3d 9f31 bc3d
000002a0: fc48 28be 9bbe 1abe a358 b43c 97cb 27be
000002b0: 6e9e 25be ff9b 2b3e 21e5 14bd c546 1abe
000002c0: 8572 d0bd f984 14be fe02 4f3e b218 b3bd
000002d0: 3bf8 b7bd 6c53 23be 32fe 3e3e fba6 94bd
000002e0: 2560 75bd fa68 ccbd 0fa6 16be 0901 9f3d
000002f0: 98d1 ea3d 0da9 5ebd be4d c53b 9109 88be
00000300: adb4 f8bd c33d 663e e02b 153c 0e98 823e
00000310: 733e 133d 2b9f 2bbe a91d 6bbe 09cd 733e
00000320: fb8d d5bd 0400 d63d 736b b23d 8da3 453d
00000330: 1093 b63d 6540 afbd 7c91 d73d b620 10be
00000340: 0271 f1bd a43f 503e 3a89 633d 487f bfbd
00000350: e823 86bd af4f f3bd 8c99 e03d 8c79 6a3c
00000360: 3674 323d 2b2a ac3c f873 0e3d fd03 bdbd
00000370: cfb1 0cbe d486 273e 2168 7a3d 7f99 6ebd
00000380: bb72 34be 399e c83d cded 343e 21c3 513b
00000390: 02b9 693e 19d3 5ebe a94d 123e 7ddc 2dbd
000003a0: 1bce 213e bcd8 f73d 8500 a73d 725c 053e
000003b0: 65fc 56be ac1b 18be 9c5e 03be 0412 b63d
000003c0: 9d65 073e cb89 29be abad 103e 5f2a 3e3e
000003d0: 2861 7ebe 5d80 0a3e fee1 36bb cd08 543d
000003e0: 1cf5 263e f826 693e 7da5 a83d ee79 e33d
000003f0: 8da2 a63d c449 5d3d 9e3e 56be b956 803d
-0.12674882 -0.09495675 0.07705879 0.12763295 0.16210766 -0.010113613 0.063620195 -0.21035841
0.12439268 0.14254318 0.105872184 -0.09191457 -0.023225611 0.021222565 -0.2016529 -0.21617201
-0.25416028 0.04704352 0.113020346 0.021702224 -0.047553394 -0.009272151 -0.22802688 0.09864915
0.07048654 -0.047313966 0.30420363 -0.2503578 0.16602267 -0.2913428 -0.07417804 0.10563771
0.10089306 -0.18550825 0.16138884 -0.26493537 0.009874662 -0.07341237 0.22849904 -0.15562302
-0.003236387 -0.050032556 0.041038547 0.17590252 -0.12977614 0.11949241 -0.0834863 0.09277477
0.11952469 -0.04141218 -0.07210881 0.12831116 -0.059158098 -0.0023546785 0.065829836 0.02132212
0.044726107 -0.114260286 0.08606381 -0.18939121 -0.024325334 -0.029032672 0.22324249 0.11113825
0.019147405 0.0593642 -0.24747781 0.08058593 -0.249937 -0.10271268 -0.18625106 -0.12201382
0.09830864 0.2851899 -0.15213862 -0.072056584 0.14566258 0.030338174 -0.15456468 -0.019618459
-0.13426928 0.0824244 0.20696801 -0.09608961 0.0919085 0.09417469 0.16686282 -0.011788367
0.019744404 0.1762892 0.128133 0.23406388 -0.0515328 0.075679936 0.14416537 -0.1640354
0.03155661 -0.038061548 0.13075006 -0.11306276 0.06378432 0.13143457 -0.17399341 -0.20657223
-0.14402512 0.11759107 0.11583868 -0.12583226 0.0066227796 -0.10329528 -0.11550315 0.1317977
0.09986742 -0.046678748 0.03599838 0.06275792 0.08850351 -0.10185439 -0.22123463 0.16847396
0.0054213405 0.017096385 -0.09936958 0.10947407 0.1721996 0.12811193 0.060591795 0.20046204
0.017624784 -0.001485796 0.15332803 0.279865 -0.131532 0.19408791 0.078227356 -0.02836066
0.14689621 -0.09758513 0.21506435 0.22127922 -0.15978096 -0.13750766 -0.227134 -0.03468195
-0.19752161 -0.069331996 0.07344476 0.15250379 0.11899804 0.12967873 0.08720755 -0.1331295
-0.17198378 0.0037104336 0.2067743 0.0070314603 -0.024791274 -0.14621142 -0.10531399 -0.17792922
0.14897695 -0.014866505 -0.24117291 0.07248842 0.047294416 0.01985418 0.122447945 0.09189152
-0.16434091 -0.15111773 0.022014922 -0.16386257 -0.16173717 0.16758727 -0.036351327 -0.15066059
-0.10178093 -0.1450385 0.20215985 -0.08744945 -0.08982893 -0.15949792 0.18651655 -0.072584115
-0.059906144 -0.0998096 -0.14711784 0.07763869 0.11465758 -0.05436044 0.0060212305 -0.265698
-0.12143836 0.22484498 0.009104699 0.25506634 0.035948228 -0.16759937 -0.22960533 0.23808683
-0.10427471 0.10449222 0.087119006 0.048251677 0.08914769 -0.08557204 0.10525796 -0.14074978
-0.11789133 0.20336777 0.05555079 -0.09350449 -0.06549817 -0.11880433 0.10966787 0.014311206
0.04356786 0.021016201 0.034778565 -0.09229276 -0.13739704 0.16360027 0.06113446 -0.058251854
-0.17621891 0.097958036 0.17668839 0.0032007175 0.22824481 -0.21760215 0.14287437 -0.042446602
0.15801279 0.12101886 0.08154396 0.13023546 -0.20994718 -0.14854306 -0.1282906 0.08890155
0.13222356 -0.1655647 0.14128749 0.18570851 -0.2484175 0.13525529 -0.0027905698 0.051766206
0.1630444 0.22768772 0.082346894 0.111072406 0.08136473 0.054025427 -0.20922324 0.06266541

linear1.bias f4 [128]
00000000: c8c8 8abc ba9c fe3d 3edc 933c 9772 51be
00000010: 77c9 26be 332f 003e f0a1 4e3e db1f 49be
00000020: fe40 d6bc 9017 f8bc 9cfc 473e 5e07 213e
00000030: e179 1b3e 5153 903d b866 433c b557 523e
00000040: 8a4f fcbd 390e 8d3c c9f3 f2bd 22e0 40be
00000050: c9d1 a8bd 2fd1 313d 142c 90bb feae 17be
00000060: bd92 50bd 8d50 2d3d 9733 20be c4d9 6d3d
00000070: 5f54 5cbe e8b2 fbbc 7e74 41be 11e1 83be
00000080: 7409 83bd d565 523e 85ca 583e 135d 8b3d
00000090: bcc2 303e 0456 fabd 973a e03d 9f21 033e
000000a0: 6fd4 5abe 2e78 2fbe df45 a73d a167 7b3c
000000b0: 8eab 85be 26b0 34be c339 1c3e 0058 243c
000000c0: 626d 11bb 1b5a 5dbe d5c4 093e 775d 17be
000000d0: 41de 913d d6d8 34bd d95e 85bc 3634 a93d
000000e0: 6a02 76bd fa88 aabd 1b15 373e 4cf6 12be
000000f0: 94a6 613d 7c8e 15be c04e 33bd 030a b43d
00000100: 2464 ca3d fd04 7cbe a888 fe3d 79a2 62bd
00000110: f6a4 453e 7da1 c0bd 93bd 103e bdb3 693d
00000120: c0fa 30bc e166 a23d 40da e3bb 5522 e3bd
00000130: d225 d13d 79f3 da3d b3a0 61bc 8766 2d3e
00000140: 9499 ddbb eb2f f2bd 404b 42be 0b55 063e
00000150: c968 cabd 32c4 cf3d 5a6c 5ebe bc3b 83bc
00000160: 28db d9bd ea74 a83d bc3d 0a3e b9d2 ef3d
00000170: 3e2a cbbd 67cd 56be a9f9 d8bd 660d 07be
00000180: 146b 113e 1b7a b2bc 536a af3d 151d 3a3e
00000190: ccd6 483d e8ec 48be 0f29 16bd f0ea 87bd
000001a0: 4b55 0f3e 1db2 9a3c 5b3c 8cbb 58ef c53d
000001b0: a22a 5f3d 53fc ba3d d26a 93bd d913 0d3d
000001c0: f6e7 9c3c 34b1 8bbd b960 d93c decf 61be
000001d0: 52c9 9d3b 7147 703d 4c68 56be 3230 08be
000001e0: edc9 ad3d 0ed8 12bc ef29 5abc 7d2a 0a3d
000001f0: b54c 10bd d6e2 d63d e2b1 aebc c2c0 72bd
-0.016941443 0.12432237 0.018049356 -0.20453869 -0.1628779 0.12518005 0.20178962 -0.19641058
-0.026154038 -0.030284673 0.19529957 0.15725467 0.15183212 0.07047141 0.0119263455 0.2054127
-0.12319858 0.017218696 -0.118629046 -0.188355 -0.08243138 0.043412384 -0.004399786 -0.14812848
-0.05092119 0.042313147 -0.1564468 0.058069006 -0.2151656 -0.030724958 -0.18892094 -0.2575765
-0.063982874 0.20546658 0.21171005 0.06804862 0.17261785 -0.122234374 0.10948675 0.12805794
-0.213701 -0.17135689 0.08167624 0.015344531 -0.26107448 -0.1764532 0.1525641 0.010030746
-0.0022190441 -0.21616404 0.13453992 -0.14781748 0.0712247 -0.044152103 -0.016280578 0.082619116
-0.060060896 -0.083269075 0.17879145 -0.14351767 0.055090502 -0.14605135 -0.043776274 0.08790972
0.098823816 -0.24611278 0.12428409 -0.055330727 0.19301209 -0.094058014 0.14134817 0.057056177
-0.010801971 0.07929779 -0.0069535077 -0.11090533 0.10212292 0.1069097 -0.013771224 0.16933642
-0.0067626927 -0.11825546 -0.18974018 0.13118379 -0.098832674 0.10144843 -0.2172102 -0.016019695
-0.10637504 0.082254246 0.13500112 0.11710114 -0.099201664 -0.20976792 -0.10594494 -0.13188705
0.14201003 -0.02178674 0.085652016 0.18175156 0.04903297 -0.19621623 -0.03666025 -0.06636608
0.1399738 0.01888376 -0.004279656 0.09664792 0.054484017 0.09130158 -0.07198109 0.034442756
0.019153576 -0.06820908 0.026535379 -0.22051951 0.004815259 0.05866188 -0.20938224 -0.13299635
0.0848578 -0.008962644 -0.013315662 0.033731926 -0.035229404 0.10492484 -0.021325056 -0.05926586

linear2.weight f4 [1, 128]
00000000: 583f 0a3c 49b6 efbd a8cc 0039 0b1d a63d
00000010: 140d 80bc 721e b33c 1837 7fbd 6235 a3bc
00000020: fc69 21bc 6559 003e 5a97 6b3c dbd3 febc
00000030: bf97 a03c 38a1 1cbb eedd ba3d 39e8 833d
00000040: 63ba c9bc 3174 f03d 52c9 34bd 35f1 2c3b
00000050: 972a 3f3d 7290 c73d 9e5a 163d b1a8 aebd
00000060: 2534 0dbc e953 dd3d 0034 ffbc a3a6 a5bd
00000070: f42d 43bd ea80 bcbc 3058 2dbd 50a8 623d
00000080: b8b8 87bc 4678 c23d d94d 9e3d 4495 013d
00000090: 1b53 863d caef 4e3d c532 aebe 76c8 f53c
000000a0: aaa8 77bd 43c9 8b3d 5078 dcbd ecb7 283d
000000b0: a605 403c 26f7 273d ef99 133d 21c9 2abd
000000c0: d6d0 803d b690 553d aa05 04bc 5edb 6abd
000000d0: 3e77 0ebe 8b4d e5bc c956 9438 848a c73b
000000e0: 408f c33b 68b9 8fbb 22f6 a73d ec64 713d
000000f0: e9b9 6ebb beb9 aa3d a91c 2bbe b986 23be
00000100: 99e5 b6be 5e20 b53d 9a6d 53bd f9b4 873d
00000110: a107 743d fc95 3bbd d6bf 4abd 9f71 1abd
00000120: 283c c13c 5281 433d 8add 3abd 5ab3 5a3d
00000130: e0b0 8e3b fd0a 34be 6282 7c3c 0af8 46bd
00000140: a8b5 e73c ba95 493d 97a3 1c3d c5d4 babd
00000150: 68de 5c3d 35e7 3fbd 0cac f8bc 2991 333d
00000160: ad98 013e e3bd ae3d 0619 833c 33ec e13d
00000170: fdd9 2abd 24e4 8cbc 9c3a e1bc ec8b cd3c
00000180: cd85 36bd ec80 9d3d 6c47 b63d 1f92 d13d
00000190: 65f8 79bd 6161 a53d c130 97bd 502f cdbc
000001a0: 0eee 4b3d 1cf5 993d 11aa b13d 8652 42be
000001b0: 16e3 b93d 3efc 1cbd f63d 78bd 48c9 3cba
000001c0: 82c1 03be 3bf6 84bd 4fea dcbd 7fdc 383e
000001d0: f13f 2c3d 7425 11be e011 6ebb f066 84bd
000001e0: 4c2d 8ebe 5f64 c9bc 8fbe 8abd cd9a a13d
000001f0: a536 d9bd aca4 143c f911 43bc 92eb 093d
0.008437954 -0.1170469 0.00012283272 0.08111008 -0.015631236 0.021865103 -0.0623084 -0.019922916
-0.009851929 0.12534101 0.014379347 -0.03110688 0.019603608 -0.0023899805 0.09124361 0.06440777
-0.024625009 0.11740912 -0.044137307 0.0026388888 0.046671476 0.09744348 0.036707513 -0.08528269
-0.008618389 0.1080702 -0.031152725 -0.08088424 -0.047651246 -0.02301069 -0.04232043 0.055336297
-0.016567573 0.094955966 0.07729692 0.03163649 0.0655882 0.05052165 -0.3402311 0.030002814
-0.060463585 0.06825497 -0.10765135 0.041191027 0.011720097 0.041007183 0.036035474 -0.041695718
0.06289832 0.05213996 -0.008057991 -0.05733811 -0.13912675 -0.027991077 7.073355e-05 0.0060895104
0.0059680045 -0.004386116 0.08201243 0.058934137 -0.003642673 0.08336209 -0.16710152 -0.15969361
-0.35722044 0.08844064 -0.051618196 0.06626315 0.059577588 -0.045797333 -0.049499355 -0.037706014
0.023588255 0.04773075 -0.045621432 0.0533937 0.0043545812 -0.17582317 0.015411945 -0.048576392
0.028284863 0.049215056 0.03824195 -0.09122614 0.05392304 -0.046851356 -0.030355476 0.043839607
0.12655897 0.08532312 0.016003143 0.110313796 -0.041711796 -0.01719863 -0.027493767 0.025091134
-0.044561196 0.076906055 0.089003414 0.102329485 -0.061027903 0.08075214 -0.07382346 -0.025046974
0.049787574 0.07517454 0.08675016 -0.18976793 0.09076516 -0.038326494 -0.060605966 -0.0007201624
-0.12866786 -0.06492277 -0.10786878 0.18052863 0.042053167 -0.14174443 -0.0036326572 -0.06464946
-0.27768934 -0.024583993 -0.067746274 0.07890854 -0.10606126 0.009072464 -0.0119061405 0.033671923

linear3.weight f4 [1, 6]
00000000: 6144 82be 6f92 8e3e e12f b83e 52f1 89be
00000010: eec0 823e 7ea7 28bd
-0.25442794 0.27846095 0.3597403 -0.26941925 0.2553782 -0.041175358
