weights/Time_Att_lstm.pth (torch, 20875 bytes, 7 tensors)

attention.in_proj_weight f4 [60, 20]
-1.1959335 -0.56713194 -0.32174334 0.16244328 -0.05296667 -0.2287692 -1.0020841 -0.79907805
-0.94352317 -0.47757158 -0.22964343 -0.27760443 -0.43543482 -0.13164856 -0.9142459 -0.24590585
-0.92621243 -0.5376031 -1.0086157 -0.96243423 -1.2727089 -0.15038404 -0.0022333115 0.21377599
0.0666917 -0.33004278 -1.0845817 -0.20647535 -0.5004049 -0.6073986 -0.2886552 -0.43461078
-0.4548802 -0.14024565 -0.4955428 -0.2552441 -0.7502717 -0.15518624 -0.74779415 -0.92477196
-1.3642424 -0.12533297 0.49165732 -0.19364208 -0.015691008 -0.2582423 -1.1447256 -0.4373786
-0.17724635 0.17219391 0.048437603 0.055695668 0.014816049 -0.18181328 -0.6266127 -0.1633542
-0.76252455 -0.6799224 -0.7542781 -0.52796525 1.3027738 0.29774985 -0.009065739 0.036941975
0.121138394 0.10426073 0.97854364 0.41478598 0.9623123 0.71432716 0.4220915 0.34855053
0.37470728 0.28066295 0.5860771 0.39089367 0.81676966 0.73874754 0.74738425 0.72025377
-1.4726826 -0.6368242 -0.09445703 0.20442331 -0.18429394 -0.2727115 -1.224881 -0.73023874
-0.79808897 -0.47445264 -0.45668238 -0.6293689 -0.38207018 -0.6166221 -0.9242875 -0.764273
-0.6300755 -0.93131864 -0.74320376 -0.91978157 1.4535137 0.82575494 0.3540212 0.17175323
0.74130404 0.30553243 1.227525 0.76483613 1.0303147 0.72857165 0.6963184 0.3895826
0.5703413 0.81651914 1.089505 0.6768203 0.77141994 0.83649004 0.94180465 1.3814939
1.1735926 0.46107307 0.050539836 0.048734665 0.609059 0.3773704 1.1289384 0.76438695
0.98873276 0.37932026 0.37994146 0.46359563 0.35416886 0.49311253 0.6735559 0.30981633
0.9694682 0.67224777 1.0795847 1.2283378 1.6575472 0.9346894 0.3898346 -0.23557892
0.35173976 0.37374544 0.9057782 0.60895085 0.7061949 0.40638816 0.46699977 0.25423104
0.45067817 0.6661392 1.1607811 0.6170007 0.9817683 0.9846981 1.0326058 1.0720907
-1.0757607 -0.7259526 -0.23481844 0.2419241 -0.3307216 -0.3032103 -1.056019 -0.5438649
-0.74571645 -0.43343562 -0.3323711 -0.11509031 -0.62834734 -0.3713371 -0.8411399 -0.7131207
-0.845172 -0.85678506 -0.7327563 -0.9533126 -1.1551366 -0.10334787 -0.25670725 -0.10592933
-0.1936684 -0.37302676 -0.8752397 -0.35766253 -0.3087714 0.019939441 -0.002824767 -0.27174273
-0.32112634 0.11677967 -0.32066202 -0.2087184 -0.47908977 -0.50557005 -0.7079577 -0.35567135
3.3762958 1.5088475 0.81425315 -0.15319996 1.1559701 0.9914545 2.7559943 1.685639
2.322149 2.0042634 1.3198451 1.1520108 1.48187 1.4937934 1.9349719 1.4171778
1.6477216 1.4571441 1.7754226 2.036863 2.7910602 0.8546462 1.0876024 0.17181808
0.64448786 0.78177786 2.1071062 1.1407951 1.6210961 1.0371614 1.3049833 0.81171083
1.240347 0.96241254 1.4598585 1.308418 1.3190123 0.9829147 1.4116955 1.6878381
-2.0124536 -0.51844805 -0.7220682 0.14358607 -0.38135922 -0.4709328 -1.0939626 -0.6229494
-0.75413007 -0.8111948 -0.6263948 -0.3923308 -0.27936974 -0.36302438 -0.978442 -0.3885759
00000000: 5914 99bf 8f2f 11bf 8bbb a4be 8857 263e
00000010: 94f3 58bd 7942 6abe 4b44 80bf 6190 4cbf
00000020: bc8a 71bf 4384 f4be a627 6bbe 2b22 8ebe
00000030: 50f1 debe e1ce 06be 050c 6abf bece 7bbe
00000040: 421c 6dbf 5ba0 09bf 521a 81bf 1762 76bf
00000050: 20e8 a2bf 46fe 19be c05c 12bb 18e8 5a3e
00000060: a895 883d 5efb a8be 93d3 8abf 466e 53be
00000070: 891a 00bf 7a7e 1bbf 9dca 93be 4e85 debe
00000080: 0fe6 e8be 8e9c 0fbe c9b7 fdbe 5baf 82be
00000090: ce11 40bf 24e9 1ebe 706f 3fbf dbbd 6cbf
000000a0: 7f9f aebf 4957 00be 82ba fb3e 1c4a 46be
000000b0: 6e8a 80bc 5638 84be 5e86 92bf 16f0 dfbe
000000c0: 1180 35be 9a53 303e 8266 463d 2421 643d
000000d0: 03bf 723c 432d 3abe b169 20bf 5346 27be
000000e0: cf34 43bf 650f 2ebf 5f18 41bf bb28 07bf
000000f0: 4bc1 a63f ab72 983e 7788 14bc 7850 173d
00000100: 6817 f83d a686 d53d d681 7a3f d45e d43e
00000110: 195a 763f 25de 363f 611c d83e 3775 b23e
00000120: a2d9 bf3e 0eb3 8f3e 2609 163f 3723 c83e
00000130: d117 513f 8f1e 3d3f 9354 3f3f 8d62 383f
00000140: dd80 bcbf e906 23bf b072 c1bd 5854 513e
00000150: 8db7 3cbe d7a0 8bbe e7c8 9cbf edf0 3abf
00000160: 8f4f 4cbf 75eb f2be 46d2 e9be 521e 21bf
00000170: b49e c3be f2da 1dbf 1b9e 6cbf 65a7 43bf
00000180: a14c 21bf e66a 6ebf 9a42 3ebf ce76 6bbf
00000190: bd0c ba3f ad64 533f 4442 b53e 14e0 2f3e
000001a0: 1ac6 3d3f bf6e 9c3e 8a1f 9d3f 4dcc 433f
000001b0: 5ae1 833f ac83 3a3f ec41 323f 5f77 c73e
000001c0: e301 123f 6607 513f e674 8b3f 1844 2d3f
000001d0: c77b 453f 3624 563f 1c1a 713f cbd4 b03f
000001e0: 4838 963f c511 ec3e dc02 4f3d 009e 473d
000001f0: 4aeb 1b3f b136 c13e 0e81 903f ddae 433f
00000200: 971d 7d3f 4436 c23e b087 c23e 685c ed3e
00000210: 9f55 b53e 3f79 fc3e 296e 2c3f 3fa0 9e3e
00000220: 112f 783f 6e18 2c3f d52f 8a3f 2c3a 9d3f
00000230: 822a d43f ce47 6f3f 6798 c73e 9a3b 71be
00000240: 3c17 b43e 905b bf3e 15e1 673f 34e4 1b3f
00000250: 30c9 343f 1c12 d03e 981a ef3e 922a 823e
00000260: 4abf e63e 1988 2a3f 7a94 943f c2f3 1d3f
00000270: 2b55 7b3f 2d15 7c3f 6d2c 843f 453a 893f
00000280: 87b2 89bf 08d8 39bf 3f74 70be f4ba 773e
00000290: 5754 a9be 613e 9bbe a12b 87bf bb3a 0bbf
000002a0: 46e7 3ebf 46eb ddbe 8b2c aabe 78b4 ebbd
000002b0: 5fdb 20bf e51f bebe f254 57bf 148f 36bf
000002c0: 315d 58bf 4456 5bbf eb95 3bbf 4b0c 74bf
000002d0: 84db 93bf 0ca8 d3bd 226f 83be 7af1 d8bd
000002e0: 0251 46be 5dfd bebe b50f 60bf 8b1f b7be
000002f0: 4917 9ebe 0a58 a33c ba1f 39bb dd21 8bbe
00000300: ac6a a4be 2e2a ef3d d02d a4be 47ba 55be
00000310: 414b f5be 0a6d 01bf b73c 35bf 8e1a b6be
00000320: 3b15 5840 ea21 c13f e572 503f 73e0 1cbe
00000330: d4f6 933f f6cf 7d3f 3662 3040 05c3 d73f
00000340: 179e 1440 da45 0040 aff0 a83f 1775 933f
00000350: ebad bd3f 9f34 bf3f 29ad f73f 1566 b53f
00000360: 8be8 d23f b383 ba3f 0c41 e33f f75b 0240
00000370: bba0 3240 18ca 5a3f 8e36 8b3f 14f1 2f3e
00000380: 28fd 243f 9822 483f d4da 0640 9305 923f
00000390: 1480 cf3f b4c1 843f b109 a73f 48cc 4f3f
000003a0: b1c3 9e3f ab60 763f a5dc ba3f 3e7a a73f
000003b0: 65d5 a83f 4ca0 7b3f 70b2 b43f 140b d83f
000003c0: 0acc 00c0 03b9 04bf 76d9 38bf 3a08 133e
000003d0: 8441 c3be 1b1e f1be f706 8cbf 9d79 1fbf
000003e0: ab0e 41bf 76aa 4fbf 695b 20bf 95df c8be
000003f0: 8d09 8fbe 55de b9be 2d7b 7abf 6cf3 c6be

attention.in_proj_bias f4 [60]
-1.5510646 -1.4228821 -1.0147855 1.3426021 -1.3748149 1.574766 1.4173757 1.621929
-1.3670037 -1.1830341 3.5151315 2.6292837 -1.6431509 2.392427 2.413861 3.0113492
-2.701831 -2.2787833 2.7323072 2.5318627 -0.03977558 -0.04640732 -0.044735406 -0.017672865
-0.0012014179 -0.011045716 0.054265495 -0.00909842 0.008594999 -0.024438743 0.048193783 0.03166416
-0.040717136 0.06330095 0.05698205 0.06306071 -0.03900042 -0.05503114 0.03364194 0.085006185
0.007839002 0.01786675 -0.023896152 -0.0033514823 0.033905484 0.011252433 0.0057246466 0.015405873
-0.01626484 0.038338512 -0.016753683 -0.0024194594 0.0043855226 0.024860973 -0.025323307 -0.00884996
0.01759084 -0.020856926 0.024952816 0.015903141
00000000: 4989 c6bf 0021 b6bf 7ee4 81bf 63da ab3f
00000010: eff9 afbf ef91 c93f 916c b53f 5f9b cf3f
00000020: faf9 aebf a96d 97bf eaf7 6040 2f46 2840
00000030: c552 d2bf 861d 1940 b37c 1a40 f2b9 4040
00000040: cdea 2cc0 96d7 11c0 1fde 2e40 0a0a 2240
00000050: b8eb 22bd 9a15 3ebd 793c 37bd afc6 90bc
00000060: e578 9dba 17f9 34bc 7f45 5e3d 8a11 15bc
00000070: 0ad2 0c3c c233 c8bc d866 453d 47b2 013d
00000080: 03c7 26bd eea3 813d 0366 693d f925 813d
00000090: e8be 1fbd 5568 61bd 22cc 093d b917 ae3d
000000a0: 286f 003c 4a5d 923c ddc1 c3bc 8ba4 5bbb
000000b0: 7ae0 0a3d 205c 383c d195 bb3b ea68 7c3c
000000c0: d73d 85bc d808 1d3d 053f 89bc cb8f 1ebb
000000d0: 6eb4 8f3b 3da9 cb3c d372 cfbc 6cff 10bc
000000e0: aa1a 903c 25dc aabc d969 cc3c 4e47 823c

attention.out_proj.weight f4 [20, 20]
0.13453719 0.19704086 -0.034969855 0.16858195 -0.108385414 -0.039859854 -0.17628866 0.07000892
0.14996003 -0.16446714 0.16294502 -0.03181967 0.1179651 0.05302933 0.09980193 -0.017367622
0.21346706 -0.012055209 -0.07143241 0.08598727 -0.12633142 0.0056633456 -0.023073975 0.12403035
-0.2424449 -0.101176195 -0.056212135 -0.12727818 -0.09585014 -0.21296094 0.16755554 -0.23560475
0.122586645 0.061329193 -0.0738981 0.042283792 0.08796589 0.10919593 0.06504916 0.019178899
0.068890065 -0.032490697 0.20159636 0.21515767 0.12531915 -0.095095456 0.05556874 0.042596616
0.07226065 -0.16461234 -0.20738038 -0.19737902 -0.21759441 0.17125599 0.07466631 0.07456884
0.16935861 -0.040431034 0.2209082 -0.03766483 0.04575941 -0.15521453 0.04501391 -0.075540096
0.06279154 -0.06377899 0.19379501 -0.17975663 -0.13823408 -0.121420376 0.17906013 0.101171836
0.24813516 -0.14271046 -0.22107746 -0.1810311 -0.2100899 0.12743065 0.06602697 0.08402442
-0.08680321 -0.17917639 0.12545665 -0.041239038 0.16962641 -0.012675799 0.12603518 -0.019300217
-0.19529551 0.064045705 0.08406604 -0.051303167 0.13347489 0.11774852 -0.13948007 -0.14253336
0.19180876 -0.07662607 -0.10588019 -0.21044548 -0.13632992 0.057056762 -0.14640176 -0.17629312
-0.0010322502 -0.13241403 -0.07784974 -0.086326405 -0.1831273 -0.10541416 0.18397947 0.15218942
0.119931094 -0.1807593 -0.16063626 -0.09787257 -0.07561741 -0.17680667 -0.13096155 -0.22093488
0.025456611 -0.112587035 -0.22654961 -0.13018759 -0.10571822 -0.080828704 0.07221602 -0.16034415
0.21587189 -0.024248743 0.16123351 0.20221773 -0.1308703 0.17224295 -0.059992615 -0.07773801
-0.33581975 -0.17152852 -0.00029834025 -0.18797493 0.046329957 -0.13765906 0.17320564 -0.2103773
-0.11104576 -0.031737376 0.08261459 0.113789 0.18395975 -0.1715542 0.023228077 -0.14252001
-0.043516796 -0.14154246 0.18767461 -0.19827366 0.10194384 0.021901345 0.12184729 -0.086269386
0.20857684 0.030110102 -0.06663075 -0.19871955 0.11634398 -0.028157253 -0.0372285 0.18757339
0.11422843 -0.10199037 -0.13798013 0.07978045 0.16942634 -0.045370996 -0.13487162 -0.053852968
-0.2860042 0.13816501 0.12319576 -0.33795545 0.050249744 0.09272142 0.094581984 -0.08843398
0.069195434 0.12352339 0.048383042 -0.06496235 -0.079297714 -0.0014559857 -0.018338975 -0.12222426
0.016752675 0.1782935 0.0031838631 -0.049539592 0.09682865 -0.070655905 0.07489093 0.18289728
-0.2363165 -0.055678166 0.22657512 0.0473535 -0.084551044 -0.12389654 -0.116912715 -0.19341725
-0.19083034 0.095427886 0.13398583 0.124325596 -0.22493774 -0.10657596 -0.049417537 0.14871791
0.057721503 -0.12762529 0.1425669 -0.003021941 -0.13564716 0.1327495 -0.24747887 -0.041216835
-0.18703595 0.16841157 0.2676602 0.08133854 -0.10802621 -0.19590515 -0.18785542 0.30327573
0.179276 0.20037225 0.10668936 0.074980125 -0.13084309 -0.11073522 -0.24436519 -0.3657042
0.069909126 -0.1570782 -0.10139593 -0.17330669 -0.06960819 -0.13989572 -0.07852754 0.040041413
-0.10086605 0.163185 -0.06981986 -0.08713508 -0.0759361 -0.098502025 -0.05722031 -0.2144212
00000000: 1ec4 093e 14c5 493e 8d3c 0fbd bfa0 2c3e
00000010: 2cf9 ddbd 1644 23bd 0485 34be d660 8f3d
00000020: 1f8f 193e 136a 28be 0fdb 263e 5855 02bd
00000030: b097 f13d 4835 593d f464 cc3d 8b46 8ebc
00000040: 1c97 5a3e 3683 45bc 284b 92bd 181a b03d
00000050: 065d 01be 9693 b93b a205 bdbc a003 fe3d
00000060: 7a43 78be 7735 cfbd b23e 66bd 3655 02be
00000070: 144d c4bd 6f12 5abe ae93 2b3e 5f42 71be
00000080: b50e fb3d 5234 7b3d e357 97bd c531 2d3d
00000090: 7627 b43d 1ea2 df3d 7e38 853d 111d 9d3c
000000a0: 3c16 8d3d f714 05bd 476f 4e3e 4b52 5c3e
000000b0: aa53 003e 68c1 c2bd 0c9c 633d ca79 2e3d
000000c0: 64fd 933d 2390 28be 865b 54be ba1d 4abe
000000d0: 12d1 5ebe bb5d 2f3e a6ea 983d 8cb7 983d
000000e0: 586c 2d3e 039b 25bd c235 623e 7046 1abd
000000f0: 386e 3b3d 8ff0 1ebe 8160 383d c4b4 9abd
00000100: da98 803d 8f9e 82bd 3372 463e 1f12 38be
00000110: 3c8d 0dbe 3fab f8bd 8a5b 373e 2e33 cf3d
00000120: 2517 7e3e b122 12be 2162 62be 3760 39be
00000130: cf21 57be 2e7d 023e 2639 873d ff14 ac3d
00000140: e2c5 b1bd 047a 37be b577 003e 44ea 28bd
00000150: 8cb2 2d3e 28ae 4fbc 5e0f 013e 7d1b 9ebc
00000160: 8cfb 47be 652a 833d d12a ac3d 4523 52bd
00000170: a4ad 083e 2326 f13d ddd3 0ebe 44f4 11be
00000180: 8469 443e 21ee 9cbd b7d7 d8bd 057f 57be
00000190: 129a 0bbe 5ab4 693d 58ea 15be 2f86 34be
000001a0: 924c 87ba 8b97 07be af6f 9fbd e6cb b0bd
000001b0: b985 3bbe 61e3 d7bd 1d65 3c3e 8bd7 1b3e
000001c0: 6f9e f53d f718 39be d57d 24be 6a71 c8bd
000001d0: 4ddd 9abd cf0c 35be c91a 06be c13c 62be
000001e0: 628a d03c 0894 e6bd 9ffc 67be e54f 05be
000001f0: cb82 d8bd 8589 a5bd fee5 933d 4231 24be
00000200: 850d 5d3e 4da5 c6bc 661a 253e 2a12 4f3e
00000210: dd02 06be 7560 303e d1ba 75bd 1b35 9fbd
00000220: 91f0 abbe 2ca5 2fbe 8d6a 9cb9 807c 40be
00000230: 7bc4 3d3d 7ff6 0cbe d25c 313e 266d 57be
00000240: f66b e3bd 0dff 01bd d731 a93d 350a e93d
00000250: f25f 3c3e e7ab 2fbe cf48 be3c c4f0 11be
00000260: ab3e 32bd 82f0 10be c62d 403e 4008 4bbe
00000270: efc7 d03d 736a b33c 128b f93d 01ae b0bd
00000280: 2b95 553e 76a9 f63c b475 88bd 237d 4bbe
00000290: c145 ee3d 0aaa e6bc e97c 18bd 3d13 403e
000002a0: 98f0 e93d 54e0 d0bd aa4a 0dbe ef63 a33d
000002b0: 197e 2d3e f0d6 39bd c91b 0abe ee94 5cbd
000002c0: 246f 92be 217b 0d3e 0f4e fc3d 7f08 adbe
000002d0: add2 4d3d bae4 bd3d 33b4 c13d e01c b5bd
000002e0: 56b6 8d3d d5f9 fc3d 4c2d 463d fb0a 85bd
000002f0: d766 a2bd c6d6 beba 9e3b 96bc b650 fabd
00000300: e83c 893c 9292 363e 5ca8 503b 07ea 4abd
00000310: 194e c63d 0bb4 90bd 6a60 993d 6d49 3b3e
00000320: f4fc 71be ca0e 64bd 4f03 683e bef5 413d
00000330: 1929 adbd 78bd fdbd ef6f efbd 2c0f 46be
00000340: 0769 43be b26f c33d 9533 093e 6b9e fe3d
00000350: 1456 66be 7f44 dabd 0b6a 4abd 8249 183e
00000360: 626d 6c3d 34b0 02be 0ffd 113e c20b 46bb
00000370: 17e7 0abe 7cef 073e 1a6b 7dbe fcd2 28bd
00000380: 5a86 3fbe 1574 2c3e c20a 893e d294 a63d
00000390: d83c ddbd 5c9b 48be 2c5d 40be f546 9b3e
000003a0: 2194 373e 622e 4d3e f47f da3d 2e8f 993d
000003b0: bbfb 05be 26c9 e2bd de3a 7abe 953d bbbe
000003c0: 842c 8f3d 1cd9 20be aba8 cfbd 4f77 31be
000003d0: bd8e 8ebd d340 0fbe 0cd3 a0bd 7702 243d
000003e0: dc92 cebd f819 273e b7fd 8ebd e073 b2bd
000003f0: 6384 9bbd 6ebb c9bd d85f 6abd 3b91 5bbe

attention.out_proj.bias f4 [20]
-0.007087187 -0.010867384 0.016042894 -0.0076644346 0.036635052 -0.012835506 -0.0060512363 -0.008020565
-0.009212576 0.01734516 -0.009494593 -0.019383065 0.004924745 -0.029945267 0.009073522 0.0329118
-0.035132356 0.019449702 0.018340308 0.019501716
00000000: a23b e8bb 1d0d 32bc 636c 833c f025 fbbb
00000010: a30e 163d 044c 52bc 7349 c6bb b068 03bc
00000020: 58f0 16bc 7017 8e3c 368f 1bbc 3cc9 9ebc
00000030: c15f a13b c74f f5bc 1ca9 143c 86ce 063d
00000040: f2e6 0fbd fb54 9f3c 6a3e 963c 10c2 9f3c

linear1.weight f4 [128, 20]
-0.17290783 -0.048924133 0.07544195 0.12419986 0.20115252 -0.0033536858 0.11108934 -0.21400775
0.12812005 0.09419586 0.15287524 -0.097103976 -0.034740206 0.07168555 -0.16634302 -0.2183142
-0.20666347 0.01575424 0.10793723 0.01937021 0.0024783788 0.012287528 -0.15069366 0.013347084
-0.028836358 -0.121662915 0.22013912 -0.18913846 0.034366354 -0.20475379 -0.042142864 -0.040165786
0.06971914 -0.15051125 0.14374615 -0.17892979 0.10655199 -0.14743972 0.18171386 -0.103340566
-0.038100347 -0.014507631 0.049870405 0.20704699 -0.16116168 0.12041291 -0.1154184 0.11470209
0.15387811 -0.059192955 -0.04084148 0.1462109 -0.08482859 0.04777306 0.053887587 0.042860437
0.0032362537 -0.14398007 0.19715887 -0.14340521 -0.10670311 -0.026960926 0.12233937 0.209765
0.062640175 0.14711228 -0.1678604 -0.04041237 -0.15277362 0.04196848 -0.12748691 -0.03377109
0.18282737 0.17563745 -0.09726704 -0.15990795 -0.019241752 0.12425932 -0.0010271405 -0.110104166
-0.1468747 0.09545231 0.2190814 -0.10824338 0.1054672 0.109208345 0.17973447 -0.025458485
0.0070431232 0.16428366 0.14134496 0.22085804 -0.06407902 0.08847821 0.15613928 -0.15178786
0.044421464 -0.05003263 0.14373988 -0.100427896 0.0393731 0.155627 -0.17289425 -0.18550241
-0.12798746 0.11821408 0.109055035 -0.13308154 0.007686051 -0.10550559 -0.09621797 0.11626673
0.109018326 -0.03361511 0.0236494 0.056619678 0.087707154 -0.09154131 -0.1822559 0.1718072
0.019265523 0.07764988 -0.114850715 0.11003643 0.1688738 0.15498085 0.08576888 0.20858859
0.038736474 0.051432174 0.18803832 0.28590333 -0.10376975 0.18596454 0.07733463 -0.038972925
0.16861625 -0.106022544 0.17108841 0.20492755 -0.16022754 -0.13795424 -0.22758058 -0.046246283
-0.19707505 -0.068885334 0.07389142 0.15205722 0.11855138 0.1301253 0.086760886 -0.13268293
-0.1715372 0.0032638216 0.20632772 0.006584842 -0.025237897 -0.14576484 -0.104867324 -0.1783758
0.15248397 -0.07379832 -0.22506754 0.021560425 0.025300132 -0.018427271 0.08988621 0.08527498
-0.17438532 -0.17276976 -0.053831033 -0.17257866 -0.17853779 0.15663777 -0.026758293 -0.13753422
-0.1284356 -0.14924258 0.2032879 -0.07810112 -0.098566875 -0.15259494 0.16958584 -0.04141914
-0.04461253 -0.08870785 -0.14099215 0.063581415 0.14302638 -0.11460403 0.0011808882 -0.23747383
-0.10578102 0.21261159 0.0020305277 0.23065162 -0.0041383654 -0.1450546 -0.18101847 0.21845503
-0.19262005 0.19773825 0.033327825 0.11706688 0.15482189 -0.0170838 0.12990132 -0.20691776
-0.05643274 0.19853297 0.12009892 -0.07172791 0.0031869328 -0.14437091 0.083843686 -0.05188472
-0.010760409 0.08562665 0.11507575 -0.14324662 -0.104372345 0.13693076 0.08256386 -0.09422537
-0.20111527 0.07773779 0.16029471 0.026582211 0.20741725 -0.18909009 0.11224557 -0.060127337
0.13402958 0.13157785 0.0608862 0.1534051 -0.1868765 -0.175965 -0.16589332 0.107310206
0.098285325 -0.13692485 0.1357027 0.2119413 -0.23037185 0.1429077 -0.0022982378 0.03725718
0.17222086 0.21163833 0.10673226 0.10335744 0.09774182 0.060396027 -0.2062845 0.05016373
00000000: c00e 31be ac64 48bd 4f81 9a3d 7f5c fe3d
00000010: edfa 4d3e 83c9 5bbb cf82 e33d d924 5bbe
00000020: e731 033e c2e9 c03d 548b 1c3e 73de c6bd
00000030: bf4b 0ebd e0cf 923d d355 2abe c28d 5fbe
00000040: 979f 53be 090f 813c 320e dd3d 46ae 9e3c
00000050: 4c6c 223b a151 493c 704f 1abe baad 5a3c
00000060: 3a3a ecbc 682a f9bd 266c 613e 83ad 41be
00000070: bcc3 0c3d faaa 51be ff9d 2cbd e184 24bd
00000080: e9c8 8e3d 9f1f 1abe 3132 133e 5f39 37be
00000090: ee37 da3d 70fa 16be 3313 3a3e 38a4 d3bd
000000a0: 1c0f 1cbd 6ab1 6dbc e944 4c3d 2004 543e
000000b0: 9107 25be 0b9b f63d 7b60 ecbd eee8 ea3d
000000c0: 3992 1d3e 5074 72bd 6549 27bd 4fb8 153e
000000d0: 9dba adbd afad 433d 3bb9 5c3d 6d8e 2f3d
000000e0: 5417 543b 836f 13be 04e4 493e d1d8 12be
000000f0: 2987 dabd 29dd dcbc 108d fa3d a3cc 563e
00000100: 7e49 803d 9aa4 163e 99e3 2bbe 7187 25bd
00000110: b070 1cbe 24e7 2b3d ee8b 02be 8e53 0abd
00000120: 1937 3b3e 4eda 333e f133 c7bd e9be 23be
00000130: e1a0 9dbc ac7b fe3d 1ea1 86ba 4b7e e1bd
00000140: 5266 16be 807c c33d e056 603e b5ae ddbd
00000150: 30ff d73d a0a8 df3d 500c 383e 508e d0bc
00000160: 00ca e63b fa39 283e bcbc 103e 9c28 623e
00000170: dc3b 83bd 1034 b53d fae2 1f3e 476e 1bbe
00000180: 48f3 353d 04ef 4cbd 8c30 133e 24ad cdbd
00000190: b045 213d af5c 1f3e 310b 31be 58f4 3dbe
000001a0: 250f 03be 391a f23d 3f58 df3d 8746 08be
000001b0: 45db fb3b 5113 d8bd ed0d c5bd 401d ee3d
000001c0: 0045 df3d ffaf 09bd 63bc c13c 09ea 673d
000001d0: cf9f b33d 037a bbbd 4aa1 3abe 3aee 2f3e
000001e0: bbd2 9d3c e606 9f3d da36 ebbd c85a e13d
000001f0: 41ed 2c3e 4db3 1e3e 98a7 af3d 3f98 553e
00000200: 23aa 1e3d 8baa 523d 1e8d 403e ec61 923e
00000210: 3c85 d4bd 7d6d 3e3e 9e61 9e3d 13a2 1fbd
00000220: bda9 2c3e 5922 d9bd cd31 2f3e 87d8 513e
00000230: b012 24be e043 0dbe e20a 69be be6c 3dbd
00000240: 0bce 49be c113 8dbd 6354 973d e3b4 1b3e
00000250: 11cb f23d 913f 053e b1af b13d 09de 07be
00000260: 73a7 2fbe d7e5 553b 9347 533e a9c5 d73b
00000270: b5bf cebc 6143 15be aec4 d6bd 25a8 36be
00000280: c224 1c3e 9323 97bd 1b78 66be 7d9f b03c
00000290: 3942 cf3c caf4 96bc 4316 b83d a6a4 ae3d
000002a0: 1192 32be 8eea 30be ee7d 5cbd 76b8 30be
000002b0: 9cd2 36be a765 203e 3534 dbbc c5d5 0cbe
000002c0: 9f84 03be 0cd3 18be b42a 503e 7bf3 9fbd
000002d0: 6edd c9bd d941 1cbe e9a7 2d3e 1ea7 29bd
000002e0: a1bb 36bd 76ac b5bd 3f60 10be f936 823d
000002f0: 8275 123e 85b5 eabd 08c8 9a3a 572c 73be
00000300: b8a3 d8bd dab6 593e 9a12 053b f02f 6c3e
00000310: 209b 87bb 3189 14be e85c 39be adb2 5f3e
00000320: 313e 45be e57b 4a3e c282 083d c3c0 ef3d
00000330: a189 1e3e 53f3 8bbc da04 053e 40e2 53be
00000340: 0426 67bd 3a4c 4b3e 6cf6 f53d 15e6 92bd
00000350: dcdb 503b f8d5 13be 3db6 ab3d 1285 54bd
00000360: 6d4c 30bc 065d af3d d6ac eb3d 3eaf 12be
00000370: 2bc1 d5bd 9437 0c3e 3e17 a93d 3bf9 c0bd
00000380: 29f1 4dbe fe34 9f3d 4c24 243e f0c2 d93c
00000390: 3065 543e d5a0 41be 01e1 e53d 1548 76bd
000003a0: 0d3f 093e 58bc 063e cf63 793d 3a16 1d3e
000003b0: 8e5c 3fbe 2b30 34be f0df 29be 74c5 db3d
000003c0: d149 c93d 0736 0cbe a6f5 0a3e 2407 593e
000003d0: 99e6 6bbe 6556 123e 089e 16bb fc9a 183d
000003e0: aa5a 303e b8b7 583e 7196 da3d 11ad d33d
000003f0: dd2c c83d d361 773d 3e3c 53be 7c78 4d3d

linear1.bias f4 [128]
-0.018730951 0.16754039 0.07617825 -0.23057996 -0.15016782 0.13534455 0.19495189 -0.19685715
-0.017237145 -0.056835406 0.18938518 0.16630904 0.15900838 0.05206923 -0.05819185 0.20815076
-0.11641715 0.017585667 -0.09057142 -0.17476815 -0.11492099 0.031162694 -0.03560431 -0.14812848
-0.046240665 0.044677746 -0.1564468 0.10499825 -0.20113854 0.0051830322 -0.18892094 -0.21273045
-0.053329576 0.20790254 0.21424104 0.06348234 0.1757683 -0.122234374 0.085437804 0.11617865
-0.213701 -0.17135689 0.05081187 -0.00033023683 -0.1717791 -0.1764532 0.15744464 0.0017434763
-7.768504e-05 -0.21616404 0.16993113 -0.14781748 0.050648663 -0.043553326 -0.03204228 0.055547148
0.0068835337 -0.0812705 0.181539 -0.1493385 0.07792941 -0.052658483 -0.08027292 0.108335264
0.08808528 -0.2078164 0.14149088 -0.15774904 0.19654307 -0.097961105 0.19911811 0.05121144
-0.010801971 0.08152537 -0.0069535077 -0.11090533 0.06848247 0.06922163 -0.027417578 0.18943508
-0.010792285 -0.11825546 -0.15628871 0.099206135 -0.114003375 0.12471393 -0.2172102 -0.008093546
-0.15373154 0.07953191 0.06451178 0.05870376 -0.10556841 -0.20976792 0.0016722437 -0.13188705
0.19470136 -0.08547157 0.08755096 0.18453562 0.024239816 -0.19621623 -0.005015841 0.0012830247
0.14231074 0.014426709 -0.0035331482 0.1800437 0.05747451 0.0916255 -0.07198109 0.025855111
-0.006034895 -0.06628858 0.027482178 -0.17601092 0.0073739253 0.053827245 -0.20938224 -0.13200602
0.101872094 0.0009798639 -0.009126809 0.0022328044 -0.10035912 0.13499069 -0.020144766 -0.08141744
00000000: a771 99bc b58f 2b3e 5803 9c3d 271d 6cbe
00000010: 98c5 19be c397 0a3e 78a1 473e ec94 49be
00000020: ea34 8dbc 3ecc 68bd 30ee 413e eb4c 2a3e
00000030: 18d3 223e 8b46 553d 945a 6ebd 7925 553e
00000040: 1d6c eebd d10f 903c 827d b9bd 6cf6 32be
00000050: b25b ebbd e848 ff3c d3d5 11bd feae 17be
00000060: da66 3dbd 0300 373d 9733 20be 5309 d73d
00000070: 43f7 4dbe 6dd6 a93b 7e74 41be 03d6 59be
00000080: 1d70 5abd 67e4 543e 0162 5b3e 0703 823d
00000090: 9bfc 333e 0456 fabd 04fa ae3d 12ef ed3d
000000a0: 6fd4 5abe 2e78 2fbe 1b20 503d a323 adb9
000000b0: dce6 2fbe 26b0 34be 2b39 213e 5b85 e43a
000000c0: d7ea a2b8 1b5a 5dbe 6d02 2e3e 775d 17be
000000d0: f974 4f3d f964 32bd c43e 03bd 6885 633d
000000e0: 448f e13b 2671 a6bd 5ce5 393e 31ec 18be
000000f0: 7499 9f3d 6cb0 57bd 2166 a4bd e1de dd3d
00000100: 0e66 b43d d3cd 54be fce2 103e f788 21be
00000110: 9642 493e d59f c8bd 9ee5 4b3e 16c3 513d
00000120: c0fa 30bc c6f6 a63d 40da e3bb 5522 e3bd
00000130: 8a40 8c3d 12c4 8d3d d49a e0bc 45fb 413e
00000140: 20d2 30bc eb2f f2bd 260a 20be 962c cb3d
00000150: 9a7a e9bd 046a ff3d 5a6c 5ebe cb9a 04bc
00000160: cd6b 1dbe a0e1 a23d c11e 843d 5b73 703d
00000170: 4034 d8bd 67cd 56be 302f db3a 660d 07be
00000180: cb5f 473e b80b afbd eb4d b33d e8f6 3c3e
00000190: 9492 c63c e8ec 48be ed5b a4bb 2a2b a83a
000001a0: e8b9 113e 015e 6c3c 648c 67bb 605d 383e
000001b0: 646a 6b3d 26a6 bb3d d26a 93bd 19ce d33c
000001c0: 5ec0 c5bb 4fc2 87bd 4e22 e13c 353c 34be
000001d0: f8a0 f13b f579 5c3d 4c68 56be 962c 07be
000001e0: 51a2 d03d c76e 803a 9d88 15bc 3e54 123b
000001f0: 1589 cdbd 003b 0a3e a306 a5bc 30be a6bd

linear2.weight f4 [1, 128]
0.009706242 -0.058538076 -0.000616678 -0.008339536 -0.027430654 0.03706836 -0.06003818 -0.019476293
-0.0013088664 0.10419605 0.029553661 -0.044264182 0.025452243 -0.08486357 0.07006157 0.055484522
-0.042862866 0.09469836 0.015927847 -0.009919093 0.042372227 -0.006517986 0.010104764 -0.08528269
-0.008975828 0.09405043 -0.031152725 -0.01154572 -0.06235821 -0.012864076 -0.04232043 0.014261202
0.009760634 0.09105896 0.06683575 0.018999202 0.05876313 0.05052165 -0.16782792 0.039429013
-0.060463585 0.06825497 -0.012961059 0.0030929833 0.0077287066 0.041007183 0.030903155 -0.039315328
0.040911824 0.05213996 -0.023784649 -0.05733811 -0.073181 -0.029182902 0.019049626 0.00034856776
0.06450453 -0.0056118146 0.06824023 0.058500446 -0.02229275 0.037667014 -0.04640773 -0.04396017
-0.21252462 0.104992904 -0.017234748 0.08027807 0.06313937 -0.0463971 -0.029381825 -0.046162624
0.023588255 0.033621494 -0.045621432 0.0533937 0.0011732036 -0.09157424 -0.045606766 -0.022043398
0.014081129 0.049215056 0.03242012 -0.024773346 0.02958397 -0.054676168 -0.030355476 0.029133463
0.1083282 0.046184164 0.00062807807 0.012573341 -0.061614323 -0.01719863 -0.13535772 0.025091134
-0.040529 0.061060213 0.08124684 0.08703813 -0.095893584 0.08075214 -0.10642795 -0.26116517
0.03815302 0.05379838 0.068587765 -0.059022237 0.07542369 -0.0604573 -0.060605966 -0.0005121624
-0.057974085 -0.066879585 -0.043896884 0.07106324 0.023450557 -0.0044602626 -0.0036326572 -0.06594405
-0.07929813 -0.023751087 -0.05613198 0.038671374 -0.030929822 -0.0026093123 -0.04516684 0.014638968
00000000: ee06 1f3c 9fc5 6fbd 8fa8 21ba 8da2 08bc
00000010: 40b6 e0bc fed4 173d 98ea 75bd bf8c 9fbc
00000020: 458e abba bd64 d53d 851a f23c 5c4e 35bd
00000030: 3981 d03c f4cc adbd 717c 8f3d bd43 633d
00000040: f990 2fbd 37f1 c13d 1e7b 823c b183 22bc
00000050: 808e 2d3d d494 d5bb 748e 253c b1a8 aebd
00000060: 5a0f 13bc 839d c03d 0034 ffbc 422a 3dbc
00000070: 536b 7fbd d8c3 52bc 3058 2dbd d1a7 693c
00000080: 11eb 1f3c 1f7d ba3d 2fe1 883d 37a4 9b3c
00000090: 9cb1 703d caef 4e3d 15db 2bbe 5180 213d
000000a0: aaa8 77bd 43c9 8b3d 9f5a 54bc a6b3 4a3b
000000b0: 1741 fd3b 26f7 273d 9d28 fd3c 1c09 21bd
000000c0: 2893 273d b690 553d 06d8 c2bc 5edb 6abd
000000d0: ecdf 95bd fb10 efbc f60d 9c3c f9bf b639
000000e0: f31a 843d 50e3 b7bb 89c1 8b3d 2a9e 6f3d
000000f0: 499f b6bc ba48 1a3d 0816 3ebd 940f 34bd
00000100: 0ea0 59be 8506 d73d e32f 8dbc d468 a43d
00000110: 374f 813d e30a 3ebd 27b2 f0bc 0515 3dbd
00000120: 283c c13c b1b6 093d 8add 3abd 5ab3 5a3d
00000130: 2ec6 993a 468b bbbd 29ce 3abd 5b94 b4bc
00000140: 89b4 663c ba95 493d f6ca 043d 79f1 cabc
00000150: 155a f23c 1ef4 5fbd 0cac f8bc 4da9 ee3c
00000160: 2ddb dd3d 9b2b 3d3d 9ba5 243a 6a00 4e3c
00000170: 4d5f 7cbd 24e4 8cbc 379b 0abe ec8b cd3c
00000180: bd01 26bd 461a 7a3d be64 a63d 0c41 b23d
00000190: db63 c4bd 6161 a53d e6f6 d9bd 71b7 85be
000001a0: 5746 1c3d b15b 5c3d be77 8c3d 4dc1 71bd
000001b0: bc77 9a3d 13a2 77bd f63d 78bd a342 06ba
000001c0: 3c76 6dbd 2af8 88bd 38cd 33bd 9b89 913d
000001d0: 621b c03c 6527 92bb e011 6ebb ad0d 87bd
000001e0: 0f67 a2bd a491 c2bc a6ea 65bd e065 1e3d
000001f0: 8a60 fdbc ff00 2bbb dd00 39bd 48d8 6f3c
